node {
  name: "x1"
  op: "Placeholder"
  attr {
    key: "dtype"
    value {
      type: DT_FLOAT
    }
  }
  attr {
    key: "shape"
    value {
      shape {
        dim {
          size: 1
        }
        dim {
          size: 240
        }
        dim {
          size: 1
        }
      }
    }
  }
}
node {
  name: "unknown"
  op: "Const"
  attr {
    key: "dtype"
    value {
      type: DT_FLOAT
    }
  }
  attr {
    key: "value"
    value {
      tensor {
        dtype: DT_FLOAT
        tensor_shape {
          dim {
            size: 7
          }
          dim {
            size: 1
          }
          dim {
            size: 16
          }
        }
        tensor_content: "…"
      }
    }
  }
}
node {
  name: "unknown_0"
  op: "Const"
  attr {
    key: "dtype"
    value {
      type: DT_FLOAT
    }
  }
  attr {
    key: "value"
    value {
      tensor {
        dtype: DT_FLOAT
        tensor_shape {
          dim {
            size: 16
          }
        }
        tensor_content: "…"
      }
    }
  }
}
node {
  name: "unknown_8"
  op: "Const"
  attr {
    key: "dtype"
    value {
      type: DT_FLOAT
    }
  }
  attr {
    key: "value"
    value {
      tensor {
        dtype: DT_FLOAT
        tensor_shape {
          dim {
            size: 16
          }
        }
        tensor_content: "…"
      }
    }
  }
}
node {
  name: "unknown_5"
  op: "Const"
  attr {
    key: "dtype"
    value {
      type: DT_FLOAT
    }
  }
  attr {
    key: "value"
    value {
      tensor {
        dtype: DT_FLOAT
        tensor_shape {
          dim {
            size: 3
          }
          dim {
            size: 32
          }
          dim {
            size: 64
          }
        }
        tensor_content: "…"
      }
    }
  }
}
node {
  name: "unknown_9"
  op: "Const"
  attr {
    key: "dtype"
    value {
      type: DT_FLOAT
    }
  }
  attr {
    key: "value"
    value {
      tensor {
        dtype: DT_FLOAT
        tensor_shape {
          dim {
            size: 960
          }
          dim {
            size: 16
          }
        }
        tensor_content: "…"
      }
    }
  }
}
node {
  name: "unknown_6"
  op: "Const"
  attr {
    key: "dtype"
    value {
      type: DT_FLOAT
    }
  }
  attr {
    key: "value"
    value {
      tensor {
        dtype: DT_FLOAT
        tensor_shape {
          dim {
            size: 64
          }
        }
        tensor_content: "…"
      }
    }
  }
}
node {
  name: "unknown_4"
  op: "Const"
  attr {
    key: "dtype"
    value {
      type: DT_FLOAT
    }
  }
  attr {
    key: "value"
    value {
      tensor {
        dtype: DT_FLOAT
        tensor_shape {
          dim {
            size: 32
          }
        }
        tensor_content: "…"
      }
    }
  }
}
node {
  name: "unknown_7"
  op: "Const"
  attr {
    key: "dtype"
    value {
      type: DT_FLOAT
    }
  }
  attr {
    key: "value"
    value {
      tensor {
        dtype: DT_FLOAT
        tensor_shape {
          dim {
            size: 960
          }
          dim {
            size: 16
          }
        }
        tensor_content: "…"
      }
    }
  }
}
node {
  name: "unknown_2"
  op: "Const"
  attr {
    key: "dtype"
    value {
      type: DT_FLOAT
    }
  }
  attr {
    key: "value"
    value {
      tensor {
        dtype: DT_FLOAT
        tensor_shape {
          dim {
            size: 32
          }
        }
        tensor_content: "…"
      }
    }
  }
}
node {
  name: "unknown_1"
  op: "Const"
  attr {
    key: "dtype"
    value {
      type: DT_FLOAT
    }
  }
  attr {
    key: "value"
    value {
      tensor {
        dtype: DT_FLOAT
        tensor_shape {
          dim {
            size: 7
          }
          dim {
            size: 16
          }
          dim {
            size: 32
          }
        }
        tensor_content: "…"
      }
    }
  }
}
node {
  name: "unknown_10"
  op: "Const"
  attr {
    key: "dtype"
    value {
      type: DT_FLOAT
    }
  }
  attr {
    key: "value"
    value {
      tensor {
        dtype: DT_FLOAT
        tensor_shape {
          dim {
            size: 16
          }
        }
        tensor_content: "…"
      }
    }
  }
}
node {
  name: "unknown_3"
  op: "Const"
  attr {
    key: "dtype"
    value {
      type: DT_FLOAT
    }
  }
  attr {
    key: "value"
    value {
      tensor {
        dtype: DT_FLOAT
        tensor_shape {
          dim {
            size: 3
          }
          dim {
            size: 32
          }
          dim {
            size: 32
          }
        }
        tensor_content: "…"
      }
    }
  }
}
node {
  name: "Func/StatefulPartitionedCall/input/_1"
  op: "Identity"
  input: "unknown"
  attr {
    key: "T"
    value {
      type: DT_FLOAT
    }
  }
  attr {
    key: "_has_manual_control_dependencies"
    value {
      b: true
    }
  }
}
node {
  name: "Func/StatefulPartitionedCall/input/_2"
  op: "Identity"
  input: "unknown_0"
  attr {
    key: "T"
    value {
      type: DT_FLOAT
    }
  }
  attr {
    key: "_has_manual_control_dependencies"
    value {
      b: true
    }
  }
}
node {
  name: "Func/StatefulPartitionedCall/input/_10"
  op: "Identity"
  input: "unknown_8"
  attr {
    key: "T"
    value {
      type: DT_FLOAT
    }
  }
  attr {
    key: "_has_manual_control_dependencies"
    value {
      b: true
    }
  }
}
node {
  name: "Func/StatefulPartitionedCall/input/_7"
  op: "Identity"
  input: "unknown_5"
  attr {
    key: "T"
    value {
      type: DT_FLOAT
    }
  }
  attr {
    key: "_has_manual_control_dependencies"
    value {
      b: true
    }
  }
}
node {
  name: "Func/StatefulPartitionedCall/input/_11"
  op: "Identity"
  input: "unknown_9"
  attr {
    key: "T"
    value {
      type: DT_FLOAT
    }
  }
  attr {
    key: "_has_manual_control_dependencies"
    value {
      b: true
    }
  }
}
node {
  name: "Func/StatefulPartitionedCall/input/_8"
  op: "Identity"
  input: "unknown_6"
  attr {
    key: "T"
    value {
      type: DT_FLOAT
    }
  }
  attr {
    key: "_has_manual_control_dependencies"
    value {
      b: true
    }
  }
}
node {
  name: "Func/StatefulPartitionedCall/input/_6"
  op: "Identity"
  input: "unknown_4"
  attr {
    key: "T"
    value {
      type: DT_FLOAT
    }
  }
  attr {
    key: "_has_manual_control_dependencies"
    value {
      b: true
    }
  }
}
node {
  name: "Func/StatefulPartitionedCall/input/_9"
  op: "Identity"
  input: "unknown_7"
  attr {
    key: "T"
    value {
      type: DT_FLOAT
    }
  }
  attr {
    key: "_has_manual_control_dependencies"
    value {
      b: true
    }
  }
}
node {
  name: "Func/StatefulPartitionedCall/input/_4"
  op: "Identity"
  input: "unknown_2"
  attr {
    key: "T"
    value {
      type: DT_FLOAT
    }
  }
  attr {
    key: "_has_manual_control_dependencies"
    value {
      b: true
    }
  }
}
node {
  name: "Func/StatefulPartitionedCall/input/_0"
  op: "Identity"
  input: "x1"
  attr {
    key: "T"
    value {
      type: DT_FLOAT
    }
  }
}
node {
  name: "StatefulPartitionedCall/Cast"
  op: "Cast"
  input: "Func/StatefulPartitionedCall/input/_0"
  attr {
    key: "DstT"
    value {
      type: DT_BFLOAT16
    }
  }
  attr {
    key: "SrcT"
    value {
      type: DT_FLOAT
    }
  }
  attr {
    key: "Truncate"
    value {
      b: false
    }
  }
}
node {
  name: "StatefulPartitionedCall/Cast_1"
  op: "Cast"
  input: "StatefulPartitionedCall/Cast"
  attr {
    key: "DstT"
    value {
      type: DT_FLOAT
    }
  }
  attr {
    key: "SrcT"
    value {
      type: DT_BFLOAT16
    }
  }
  attr {
    key: "Truncate"
    value {
      b: false
    }
  }
  attr {
    key: "_has_manual_control_dependencies"
    value {
      b: true
    }
  }
}
node {
  name: "Func/StatefulPartitionedCall/input/_3"
  op: "Identity"
  input: "unknown_1"
  attr {
    key: "T"
    value {
      type: DT_FLOAT
    }
  }
  attr {
    key: "_has_manual_control_dependencies"
    value {
      b: true
    }
  }
}
node {
  name: "Func/StatefulPartitionedCall/input/_12"
  op: "Identity"
  input: "unknown_10"
  attr {
    key: "T"
    value {
      type: DT_FLOAT
    }
  }
  attr {
    key: "_has_manual_control_dependencies"
    value {
      b: true
    }
  }
}
node {
  name: "Func/StatefulPartitionedCall/input/_5"
  op: "Identity"
  input: "unknown_3"
  attr {
    key: "T"
    value {
      type: DT_FLOAT
    }
  }
  attr {
    key: "_has_manual_control_dependencies"
    value {
      b: true
    }
  }
}
node {
  name: "Func/StatefulPartitionedCall/StatefulPartitionedCall/input_control_node/_16"
  op: "NoOp"
  input: "^Func/StatefulPartitionedCall/input/_1"
  input: "^Func/StatefulPartitionedCall/input/_10"
  input: "^Func/StatefulPartitionedCall/input/_11"
  input: "^Func/StatefulPartitionedCall/input/_12"
  input: "^Func/StatefulPartitionedCall/input/_2"
  input: "^Func/StatefulPartitionedCall/input/_3"
  input: "^Func/StatefulPartitionedCall/input/_4"
  input: "^Func/StatefulPartitionedCall/input/_5"
  input: "^Func/StatefulPartitionedCall/input/_6"
  input: "^Func/StatefulPartitionedCall/input/_7"
  input: "^Func/StatefulPartitionedCall/input/_8"
  input: "^Func/StatefulPartitionedCall/input/_9"
  input: "^StatefulPartitionedCall/Cast_1"
  attr {
    key: "_has_manual_control_dependencies"
    value {
      b: true
    }
  }
}
node {
  name: "Func/StatefulPartitionedCall/StatefulPartitionedCall/input/_17"
  op: "Identity"
  input: "StatefulPartitionedCall/Cast_1"
  input: "^Func/StatefulPartitionedCall/StatefulPartitionedCall/input_control_node/_16"
  attr {
    key: "T"
    value {
      type: DT_FLOAT
    }
  }
}
node {
  name: "Func/StatefulPartitionedCall/StatefulPartitionedCall/StatefulPartitionedCall/input_control_node/_33"
  op: "NoOp"
  input: "^Func/StatefulPartitionedCall/StatefulPartitionedCall/input_control_node/_16"
  attr {
    key: "_has_manual_control_dependencies"
    value {
      b: true
    }
  }
}
node {
  name: "Func/StatefulPartitionedCall/StatefulPartitionedCall/StatefulPartitionedCall/input/_34"
  op: "Identity"
  input: "Func/StatefulPartitionedCall/StatefulPartitionedCall/input/_17"
  input: "^Func/StatefulPartitionedCall/StatefulPartitionedCall/StatefulPartitionedCall/input_control_node/_33"
  attr {
    key: "T"
    value {
      type: DT_FLOAT
    }
  }
}
node {
  name: "StatefulPartitionedCall/StatefulPartitionedCall/StatefulPartitionedCall/encoder_1/conv1d_1/convolution/ExpandDims/dim"
  op: "Const"
  input: "^Func/StatefulPartitionedCall/StatefulPartitionedCall/StatefulPartitionedCall/input_control_node/_33"
  attr {
    key: "dtype"
    value {
      type: DT_INT32
    }
  }
  attr {
    key: "value"
    value {
      tensor {
        dtype: DT_INT32
        tensor_shape {
        }
        int_val: -3
      }
    }
  }
}
node {
  name: "StatefulPartitionedCall/StatefulPartitionedCall/StatefulPartitionedCall/encoder_1/conv1d_1/convolution/ExpandDims"
  op: "ExpandDims"
  input: "Func/StatefulPartitionedCall/StatefulPartitionedCall/StatefulPartitionedCall/input/_34"
  input: "StatefulPartitionedCall/StatefulPartitionedCall/StatefulPartitionedCall/encoder_1/conv1d_1/convolution/ExpandDims/dim"
  attr {
    key: "T"
    value {
      type: DT_FLOAT
    }
  }
  attr {
    key: "Tdim"
    value {
      type: DT_INT32
    }
  }
}
node {
  name: "Func/StatefulPartitionedCall/StatefulPartitionedCall/input/_18"
  op: "Identity"
  input: "Func/StatefulPartitionedCall/input/_1"
  input: "^Func/StatefulPartitionedCall/StatefulPartitionedCall/input_control_node/_16"
  attr {
    key: "T"
    value {
      type: DT_FLOAT
    }
  }
}
node {
  name: "Func/StatefulPartitionedCall/StatefulPartitionedCall/StatefulPartitionedCall/input/_35"
  op: "Identity"
  input: "Func/StatefulPartitionedCall/StatefulPartitionedCall/input/_18"
  input: "^Func/StatefulPartitionedCall/StatefulPartitionedCall/StatefulPartitionedCall/input_control_node/_33"
  attr {
    key: "T"
    value {
      type: DT_FLOAT
    }
  }
}
node {
  name: "StatefulPartitionedCall/StatefulPartitionedCall/StatefulPartitionedCall/encoder_1/conv1d_1/convolution/ExpandDims_1/ReadVariableOp"
  op: "Identity"
  input: "Func/StatefulPartitionedCall/StatefulPartitionedCall/StatefulPartitionedCall/input/_35"
  attr {
    key: "T"
    value {
      type: DT_FLOAT
    }
  }
  attr {
    key: "_has_manual_control_dependencies"
    value {
      b: true
    }
  }
}
node {
  name: "StatefulPartitionedCall/StatefulPartitionedCall/StatefulPartitionedCall/encoder_1/conv1d_1/convolution/ExpandDims_1/dim"
  op: "Const"
  input: "^Func/StatefulPartitionedCall/StatefulPartitionedCall/StatefulPartitionedCall/input_control_node/_33"
  attr {
    key: "dtype"
    value {
      type: DT_INT32
    }
  }
  attr {
    key: "value"
    value {
      tensor {
        dtype: DT_INT32
        tensor_shape {
        }
      }
    }
  }
}
node {
  name: "StatefulPartitionedCall/StatefulPartitionedCall/StatefulPartitionedCall/encoder_1/conv1d_1/convolution/ExpandDims_1"
  op: "ExpandDims"
  input: "StatefulPartitionedCall/StatefulPartitionedCall/StatefulPartitionedCall/encoder_1/conv1d_1/convolution/ExpandDims_1/ReadVariableOp"
  input: "StatefulPartitionedCall/StatefulPartitionedCall/StatefulPartitionedCall/encoder_1/conv1d_1/convolution/ExpandDims_1/dim"
  attr {
    key: "T"
    value {
      type: DT_FLOAT
    }
  }
  attr {
    key: "Tdim"
    value {
      type: DT_INT32
    }
  }
}
node {
  name: "StatefulPartitionedCall/StatefulPartitionedCall/StatefulPartitionedCall/encoder_1/conv1d_1/convolution"
  op: "Conv2D"
  input: "StatefulPartitionedCall/StatefulPartitionedCall/StatefulPartitionedCall/encoder_1/conv1d_1/convolution/ExpandDims"
  input: "StatefulPartitionedCall/StatefulPartitionedCall/StatefulPartitionedCall/encoder_1/conv1d_1/convolution/ExpandDims_1"
  attr {
    key: "T"
    value {
      type: DT_FLOAT
    }
  }
  attr {
    key: "data_format"
    value {
      s: "NHWC"
    }
  }
  attr {
    key: "dilations"
    value {
      list {
        i: 1
        i: 1
        i: 1
        i: 1
      }
    }
  }
  attr {
    key: "explicit_paddings"
    value {
      list {
      }
    }
  }
  attr {
    key: "padding"
    value {
      s: "SAME"
    }
  }
  attr {
    key: "strides"
    value {
      list {
        i: 1
        i: 1
        i: 2
        i: 1
      }
    }
  }
  attr {
    key: "use_cudnn_on_gpu"
    value {
      b: true
    }
  }
}
node {
  name: "StatefulPartitionedCall/StatefulPartitionedCall/StatefulPartitionedCall/encoder_1/conv1d_1/convolution/Squeeze"
  op: "Squeeze"
  input: "StatefulPartitionedCall/StatefulPartitionedCall/StatefulPartitionedCall/encoder_1/conv1d_1/convolution"
  attr {
    key: "T"
    value {
      type: DT_FLOAT
    }
  }
  attr {
    key: "squeeze_dims"
    value {
      list {
        i: -3
      }
    }
  }
}
node {
  name: "Func/StatefulPartitionedCall/StatefulPartitionedCall/input/_19"
  op: "Identity"
  input: "Func/StatefulPartitionedCall/input/_2"
  input: "^Func/StatefulPartitionedCall/StatefulPartitionedCall/input_control_node/_16"
  attr {
    key: "T"
    value {
      type: DT_FLOAT
    }
  }
}
node {
  name: "Func/StatefulPartitionedCall/StatefulPartitionedCall/StatefulPartitionedCall/input/_36"
  op: "Identity"
  input: "Func/StatefulPartitionedCall/StatefulPartitionedCall/input/_19"
  input: "^Func/StatefulPartitionedCall/StatefulPartitionedCall/StatefulPartitionedCall/input_control_node/_33"
  attr {
    key: "T"
    value {
      type: DT_FLOAT
    }
  }
}
node {
  name: "StatefulPartitionedCall/StatefulPartitionedCall/StatefulPartitionedCall/encoder_1/conv1d_1/Reshape/ReadVariableOp"
  op: "Identity"
  input: "Func/StatefulPartitionedCall/StatefulPartitionedCall/StatefulPartitionedCall/input/_36"
  attr {
    key: "T"
    value {
      type: DT_FLOAT
    }
  }
  attr {
    key: "_has_manual_control_dependencies"
    value {
      b: true
    }
  }
}
node {
  name: "StatefulPartitionedCall/StatefulPartitionedCall/StatefulPartitionedCall/encoder_1/conv1d_1/Reshape/shape"
  op: "Const"
  input: "^Func/StatefulPartitionedCall/StatefulPartitionedCall/StatefulPartitionedCall/input_control_node/_33"
  attr {
    key: "dtype"
    value {
      type: DT_INT32
    }
  }
  attr {
    key: "value"
    value {
      tensor {
        dtype: DT_INT32
        tensor_shape {
          dim {
            size: 3
          }
        }
        tensor_content: "\001\000\000\000\001\000\000\000\020\000\000\000"
      }
    }
  }
}
node {
  name: "StatefulPartitionedCall/StatefulPartitionedCall/StatefulPartitionedCall/encoder_1/conv1d_1/Reshape"
  op: "Reshape"
  input: "StatefulPartitionedCall/StatefulPartitionedCall/StatefulPartitionedCall/encoder_1/conv1d_1/Reshape/ReadVariableOp"
  input: "StatefulPartitionedCall/StatefulPartitionedCall/StatefulPartitionedCall/encoder_1/conv1d_1/Reshape/shape"
  attr {
    key: "T"
    value {
      type: DT_FLOAT
    }
  }
  attr {
    key: "Tshape"
    value {
      type: DT_INT32
    }
  }
}
node {
  name: "StatefulPartitionedCall/StatefulPartitionedCall/StatefulPartitionedCall/encoder_1/conv1d_1/Squeeze"
  op: "Squeeze"
  input: "StatefulPartitionedCall/StatefulPartitionedCall/StatefulPartitionedCall/encoder_1/conv1d_1/Reshape"
  attr {
    key: "T"
    value {
      type: DT_FLOAT
    }
  }
  attr {
    key: "squeeze_dims"
    value {
      list {
      }
    }
  }
}
node {
  name: "StatefulPartitionedCall/StatefulPartitionedCall/StatefulPartitionedCall/encoder_1/conv1d_1/BiasAdd"
  op: "BiasAdd"
  input: "StatefulPartitionedCall/StatefulPartitionedCall/StatefulPartitionedCall/encoder_1/conv1d_1/convolution/Squeeze"
  input: "StatefulPartitionedCall/StatefulPartitionedCall/StatefulPartitionedCall/encoder_1/conv1d_1/Squeeze"
  attr {
    key: "T"
    value {
      type: DT_FLOAT
    }
  }
  attr {
    key: "data_format"
    value {
      s: "NHWC"
    }
  }
}
node {
  name: "StatefulPartitionedCall/StatefulPartitionedCall/StatefulPartitionedCall/encoder_1/leaky_re_lu_1/LeakyRelu"
  op: "LeakyRelu"
  input: "StatefulPartitionedCall/StatefulPartitionedCall/StatefulPartitionedCall/encoder_1/conv1d_1/BiasAdd"
  attr {
    key: "T"
    value {
      type: DT_FLOAT
    }
  }
  attr {
    key: "alpha"
    value {
      f: 0.30000001192092896
    }
  }
}
node {
  name: "StatefulPartitionedCall/StatefulPartitionedCall/StatefulPartitionedCall/encoder_1/conv1d_1_2/convolution/ExpandDims/dim"
  op: "Const"
  input: "^Func/StatefulPartitionedCall/StatefulPartitionedCall/StatefulPartitionedCall/input_control_node/_33"
  attr {
    key: "dtype"
    value {
      type: DT_INT32
    }
  }
  attr {
    key: "value"
    value {
      tensor {
        dtype: DT_INT32
        tensor_shape {
        }
        int_val: -3
      }
    }
  }
}
node {
  name: "StatefulPartitionedCall/StatefulPartitionedCall/StatefulPartitionedCall/encoder_1/conv1d_1_2/convolution/ExpandDims"
  op: "ExpandDims"
  input: "StatefulPartitionedCall/StatefulPartitionedCall/StatefulPartitionedCall/encoder_1/leaky_re_lu_1/LeakyRelu"
  input: "StatefulPartitionedCall/StatefulPartitionedCall/StatefulPartitionedCall/encoder_1/conv1d_1_2/convolution/ExpandDims/dim"
  attr {
    key: "T"
    value {
      type: DT_FLOAT
    }
  }
  attr {
    key: "Tdim"
    value {
      type: DT_INT32
    }
  }
}
node {
  name: "Func/StatefulPartitionedCall/StatefulPartitionedCall/input/_20"
  op: "Identity"
  input: "Func/StatefulPartitionedCall/input/_3"
  input: "^Func/StatefulPartitionedCall/StatefulPartitionedCall/input_control_node/_16"
  attr {
    key: "T"
    value {
      type: DT_FLOAT
    }
  }
}
node {
  name: "Func/StatefulPartitionedCall/StatefulPartitionedCall/StatefulPartitionedCall/input/_37"
  op: "Identity"
  input: "Func/StatefulPartitionedCall/StatefulPartitionedCall/input/_20"
  input: "^Func/StatefulPartitionedCall/StatefulPartitionedCall/StatefulPartitionedCall/input_control_node/_33"
  attr {
    key: "T"
    value {
      type: DT_FLOAT
    }
  }
}
node {
  name: "StatefulPartitionedCall/StatefulPartitionedCall/StatefulPartitionedCall/encoder_1/conv1d_1_2/convolution/ExpandDims_1/ReadVariableOp"
  op: "Identity"
  input: "Func/StatefulPartitionedCall/StatefulPartitionedCall/StatefulPartitionedCall/input/_37"
  attr {
    key: "T"
    value {
      type: DT_FLOAT
    }
  }
  attr {
    key: "_has_manual_control_dependencies"
    value {
      b: true
    }
  }
}
node {
  name: "StatefulPartitionedCall/StatefulPartitionedCall/StatefulPartitionedCall/encoder_1/conv1d_1_2/convolution/ExpandDims_1/dim"
  op: "Const"
  input: "^Func/StatefulPartitionedCall/StatefulPartitionedCall/StatefulPartitionedCall/input_control_node/_33"
  attr {
    key: "dtype"
    value {
      type: DT_INT32
    }
  }
  attr {
    key: "value"
    value {
      tensor {
        dtype: DT_INT32
        tensor_shape {
        }
      }
    }
  }
}
node {
  name: "StatefulPartitionedCall/StatefulPartitionedCall/StatefulPartitionedCall/encoder_1/conv1d_1_2/convolution/ExpandDims_1"
  op: "ExpandDims"
  input: "StatefulPartitionedCall/StatefulPartitionedCall/StatefulPartitionedCall/encoder_1/conv1d_1_2/convolution/ExpandDims_1/ReadVariableOp"
  input: "StatefulPartitionedCall/StatefulPartitionedCall/StatefulPartitionedCall/encoder_1/conv1d_1_2/convolution/ExpandDims_1/dim"
  attr {
    key: "T"
    value {
      type: DT_FLOAT
    }
  }
  attr {
    key: "Tdim"
    value {
      type: DT_INT32
    }
  }
}
node {
  name: "StatefulPartitionedCall/StatefulPartitionedCall/StatefulPartitionedCall/encoder_1/conv1d_1_2/convolution"
  op: "Conv2D"
  input: "StatefulPartitionedCall/StatefulPartitionedCall/StatefulPartitionedCall/encoder_1/conv1d_1_2/convolution/ExpandDims"
  input: "StatefulPartitionedCall/StatefulPartitionedCall/StatefulPartitionedCall/encoder_1/conv1d_1_2/convolution/ExpandDims_1"
  attr {
    key: "T"
    value {
      type: DT_FLOAT
    }
  }
  attr {
    key: "data_format"
    value {
      s: "NHWC"
    }
  }
  attr {
    key: "dilations"
    value {
      list {
        i: 1
        i: 1
        i: 1
        i: 1
      }
    }
  }
  attr {
    key: "explicit_paddings"
    value {
      list {
      }
    }
  }
  attr {
    key: "padding"
    value {
      s: "SAME"
    }
  }
  attr {
    key: "strides"
    value {
      list {
        i: 1
        i: 1
        i: 2
        i: 1
      }
    }
  }
  attr {
    key: "use_cudnn_on_gpu"
    value {
      b: true
    }
  }
}
node {
  name: "StatefulPartitionedCall/StatefulPartitionedCall/StatefulPartitionedCall/encoder_1/conv1d_1_2/convolution/Squeeze"
  op: "Squeeze"
  input: "StatefulPartitionedCall/StatefulPartitionedCall/StatefulPartitionedCall/encoder_1/conv1d_1_2/convolution"
  attr {
    key: "T"
    value {
      type: DT_FLOAT
    }
  }
  attr {
    key: "squeeze_dims"
    value {
      list {
        i: -3
      }
    }
  }
}
node {
  name: "Func/StatefulPartitionedCall/StatefulPartitionedCall/input/_21"
  op: "Identity"
  input: "Func/StatefulPartitionedCall/input/_4"
  input: "^Func/StatefulPartitionedCall/StatefulPartitionedCall/input_control_node/_16"
  attr {
    key: "T"
    value {
      type: DT_FLOAT
    }
  }
}
node {
  name: "Func/StatefulPartitionedCall/StatefulPartitionedCall/StatefulPartitionedCall/input/_38"
  op: "Identity"
  input: "Func/StatefulPartitionedCall/StatefulPartitionedCall/input/_21"
  input: "^Func/StatefulPartitionedCall/StatefulPartitionedCall/StatefulPartitionedCall/input_control_node/_33"
  attr {
    key: "T"
    value {
      type: DT_FLOAT
    }
  }
}
node {
  name: "StatefulPartitionedCall/StatefulPartitionedCall/StatefulPartitionedCall/encoder_1/conv1d_1_2/Reshape/ReadVariableOp"
  op: "Identity"
  input: "Func/StatefulPartitionedCall/StatefulPartitionedCall/StatefulPartitionedCall/input/_38"
  attr {
    key: "T"
    value {
      type: DT_FLOAT
    }
  }
  attr {
    key: "_has_manual_control_dependencies"
    value {
      b: true
    }
  }
}
node {
  name: "StatefulPartitionedCall/StatefulPartitionedCall/StatefulPartitionedCall/encoder_1/conv1d_1_2/Reshape/shape"
  op: "Const"
  input: "^Func/StatefulPartitionedCall/StatefulPartitionedCall/StatefulPartitionedCall/input_control_node/_33"
  attr {
    key: "dtype"
    value {
      type: DT_INT32
    }
  }
  attr {
    key: "value"
    value {
      tensor {
        dtype: DT_INT32
        tensor_shape {
          dim {
            size: 3
          }
        }
        tensor_content: "\001\000\000\000\001\000\000\000 \000\000\000"
      }
    }
  }
}
node {
  name: "StatefulPartitionedCall/StatefulPartitionedCall/StatefulPartitionedCall/encoder_1/conv1d_1_2/Reshape"
  op: "Reshape"
  input: "StatefulPartitionedCall/StatefulPartitionedCall/StatefulPartitionedCall/encoder_1/conv1d_1_2/Reshape/ReadVariableOp"
  input: "StatefulPartitionedCall/StatefulPartitionedCall/StatefulPartitionedCall/encoder_1/conv1d_1_2/Reshape/shape"
  attr {
    key: "T"
    value {
      type: DT_FLOAT
    }
  }
  attr {
    key: "Tshape"
    value {
      type: DT_INT32
    }
  }
}
node {
  name: "StatefulPartitionedCall/StatefulPartitionedCall/StatefulPartitionedCall/encoder_1/conv1d_1_2/Squeeze"
  op: "Squeeze"
  input: "StatefulPartitionedCall/StatefulPartitionedCall/StatefulPartitionedCall/encoder_1/conv1d_1_2/Reshape"
  attr {
    key: "T"
    value {
      type: DT_FLOAT
    }
  }
  attr {
    key: "squeeze_dims"
    value {
      list {
      }
    }
  }
}
node {
  name: "StatefulPartitionedCall/StatefulPartitionedCall/StatefulPartitionedCall/encoder_1/conv1d_1_2/BiasAdd"
  op: "BiasAdd"
  input: "StatefulPartitionedCall/StatefulPartitionedCall/StatefulPartitionedCall/encoder_1/conv1d_1_2/convolution/Squeeze"
  input: "StatefulPartitionedCall/StatefulPartitionedCall/StatefulPartitionedCall/encoder_1/conv1d_1_2/Squeeze"
  attr {
    key: "T"
    value {
      type: DT_FLOAT
    }
  }
  attr {
    key: "data_format"
    value {
      s: "NHWC"
    }
  }
}
node {
  name: "StatefulPartitionedCall/StatefulPartitionedCall/StatefulPartitionedCall/encoder_1/leaky_re_lu_1_2/LeakyRelu"
  op: "LeakyRelu"
  input: "StatefulPartitionedCall/StatefulPartitionedCall/StatefulPartitionedCall/encoder_1/conv1d_1_2/BiasAdd"
  attr {
    key: "T"
    value {
      type: DT_FLOAT
    }
  }
  attr {
    key: "alpha"
    value {
      f: 0.30000001192092896
    }
  }
}
node {
  name: "StatefulPartitionedCall/StatefulPartitionedCall/StatefulPartitionedCall/encoder_1/conv1d_2_1/convolution/ExpandDims/dim"
  op: "Const"
  input: "^Func/StatefulPartitionedCall/StatefulPartitionedCall/StatefulPartitionedCall/input_control_node/_33"
  attr {
    key: "dtype"
    value {
      type: DT_INT32
    }
  }
  attr {
    key: "value"
    value {
      tensor {
        dtype: DT_INT32
        tensor_shape {
        }
        int_val: -3
      }
    }
  }
}
node {
  name: "StatefulPartitionedCall/StatefulPartitionedCall/StatefulPartitionedCall/encoder_1/conv1d_2_1/convolution/ExpandDims"
  op: "ExpandDims"
  input: "StatefulPartitionedCall/StatefulPartitionedCall/StatefulPartitionedCall/encoder_1/leaky_re_lu_1_2/LeakyRelu"
  input: "StatefulPartitionedCall/StatefulPartitionedCall/StatefulPartitionedCall/encoder_1/conv1d_2_1/convolution/ExpandDims/dim"
  attr {
    key: "T"
    value {
      type: DT_FLOAT
    }
  }
  attr {
    key: "Tdim"
    value {
      type: DT_INT32
    }
  }
}
node {
  name: "Func/StatefulPartitionedCall/StatefulPartitionedCall/input/_22"
  op: "Identity"
  input: "Func/StatefulPartitionedCall/input/_5"
  input: "^Func/StatefulPartitionedCall/StatefulPartitionedCall/input_control_node/_16"
  attr {
    key: "T"
    value {
      type: DT_FLOAT
    }
  }
}
node {
  name: "Func/StatefulPartitionedCall/StatefulPartitionedCall/StatefulPartitionedCall/input/_39"
  op: "Identity"
  input: "Func/StatefulPartitionedCall/StatefulPartitionedCall/input/_22"
  input: "^Func/StatefulPartitionedCall/StatefulPartitionedCall/StatefulPartitionedCall/input_control_node/_33"
  attr {
    key: "T"
    value {
      type: DT_FLOAT
    }
  }
}
node {
  name: "StatefulPartitionedCall/StatefulPartitionedCall/StatefulPartitionedCall/encoder_1/conv1d_2_1/convolution/ExpandDims_1/ReadVariableOp"
  op: "Identity"
  input: "Func/StatefulPartitionedCall/StatefulPartitionedCall/StatefulPartitionedCall/input/_39"
  attr {
    key: "T"
    value {
      type: DT_FLOAT
    }
  }
  attr {
    key: "_has_manual_control_dependencies"
    value {
      b: true
    }
  }
}
node {
  name: "StatefulPartitionedCall/StatefulPartitionedCall/StatefulPartitionedCall/encoder_1/conv1d_2_1/convolution/ExpandDims_1/dim"
  op: "Const"
  input: "^Func/StatefulPartitionedCall/StatefulPartitionedCall/StatefulPartitionedCall/input_control_node/_33"
  attr {
    key: "dtype"
    value {
      type: DT_INT32
    }
  }
  attr {
    key: "value"
    value {
      tensor {
        dtype: DT_INT32
        tensor_shape {
        }
      }
    }
  }
}
node {
  name: "StatefulPartitionedCall/StatefulPartitionedCall/StatefulPartitionedCall/encoder_1/conv1d_2_1/convolution/ExpandDims_1"
  op: "ExpandDims"
  input: "StatefulPartitionedCall/StatefulPartitionedCall/StatefulPartitionedCall/encoder_1/conv1d_2_1/convolution/ExpandDims_1/ReadVariableOp"
  input: "StatefulPartitionedCall/StatefulPartitionedCall/StatefulPartitionedCall/encoder_1/conv1d_2_1/convolution/ExpandDims_1/dim"
  attr {
    key: "T"
    value {
      type: DT_FLOAT
    }
  }
  attr {
    key: "Tdim"
    value {
      type: DT_INT32
    }
  }
}
node {
  name: "StatefulPartitionedCall/StatefulPartitionedCall/StatefulPartitionedCall/encoder_1/conv1d_2_1/convolution"
  op: "Conv2D"
  input: "StatefulPartitionedCall/StatefulPartitionedCall/StatefulPartitionedCall/encoder_1/conv1d_2_1/convolution/ExpandDims"
  input: "StatefulPartitionedCall/StatefulPartitionedCall/StatefulPartitionedCall/encoder_1/conv1d_2_1/convolution/ExpandDims_1"
  attr {
    key: "T"
    value {
      type: DT_FLOAT
    }
  }
  attr {
    key: "data_format"
    value {
      s: "NHWC"
    }
  }
  attr {
    key: "dilations"
    value {
      list {
        i: 1
        i: 1
        i: 1
        i: 1
      }
    }
  }
  attr {
    key: "explicit_paddings"
    value {
      list {
      }
    }
  }
  attr {
    key: "padding"
    value {
      s: "SAME"
    }
  }
  attr {
    key: "strides"
    value {
      list {
        i: 1
        i: 1
        i: 2
        i: 1
      }
    }
  }
  attr {
    key: "use_cudnn_on_gpu"
    value {
      b: true
    }
  }
}
node {
  name: "StatefulPartitionedCall/StatefulPartitionedCall/StatefulPartitionedCall/encoder_1/conv1d_2_1/convolution/Squeeze"
  op: "Squeeze"
  input: "StatefulPartitionedCall/StatefulPartitionedCall/StatefulPartitionedCall/encoder_1/conv1d_2_1/convolution"
  attr {
    key: "T"
    value {
      type: DT_FLOAT
    }
  }
  attr {
    key: "squeeze_dims"
    value {
      list {
        i: -3
      }
    }
  }
}
node {
  name: "Func/StatefulPartitionedCall/StatefulPartitionedCall/input/_23"
  op: "Identity"
  input: "Func/StatefulPartitionedCall/input/_6"
  input: "^Func/StatefulPartitionedCall/StatefulPartitionedCall/input_control_node/_16"
  attr {
    key: "T"
    value {
      type: DT_FLOAT
    }
  }
}
node {
  name: "Func/StatefulPartitionedCall/StatefulPartitionedCall/StatefulPartitionedCall/input/_40"
  op: "Identity"
  input: "Func/StatefulPartitionedCall/StatefulPartitionedCall/input/_23"
  input: "^Func/StatefulPartitionedCall/StatefulPartitionedCall/StatefulPartitionedCall/input_control_node/_33"
  attr {
    key: "T"
    value {
      type: DT_FLOAT
    }
  }
}
node {
  name: "StatefulPartitionedCall/StatefulPartitionedCall/StatefulPartitionedCall/encoder_1/conv1d_2_1/Reshape/ReadVariableOp"
  op: "Identity"
  input: "Func/StatefulPartitionedCall/StatefulPartitionedCall/StatefulPartitionedCall/input/_40"
  attr {
    key: "T"
    value {
      type: DT_FLOAT
    }
  }
  attr {
    key: "_has_manual_control_dependencies"
    value {
      b: true
    }
  }
}
node {
  name: "StatefulPartitionedCall/StatefulPartitionedCall/StatefulPartitionedCall/encoder_1/conv1d_2_1/Reshape/shape"
  op: "Const"
  input: "^Func/StatefulPartitionedCall/StatefulPartitionedCall/StatefulPartitionedCall/input_control_node/_33"
  attr {
    key: "dtype"
    value {
      type: DT_INT32
    }
  }
  attr {
    key: "value"
    value {
      tensor {
        dtype: DT_INT32
        tensor_shape {
          dim {
            size: 3
          }
        }
        tensor_content: "\001\000\000\000\001\000\000\000 \000\000\000"
      }
    }
  }
}
node {
  name: "StatefulPartitionedCall/StatefulPartitionedCall/StatefulPartitionedCall/encoder_1/conv1d_2_1/Reshape"
  op: "Reshape"
  input: "StatefulPartitionedCall/StatefulPartitionedCall/StatefulPartitionedCall/encoder_1/conv1d_2_1/Reshape/ReadVariableOp"
  input: "StatefulPartitionedCall/StatefulPartitionedCall/StatefulPartitionedCall/encoder_1/conv1d_2_1/Reshape/shape"
  attr {
    key: "T"
    value {
      type: DT_FLOAT
    }
  }
  attr {
    key: "Tshape"
    value {
      type: DT_INT32
    }
  }
}
node {
  name: "StatefulPartitionedCall/StatefulPartitionedCall/StatefulPartitionedCall/encoder_1/conv1d_2_1/Squeeze"
  op: "Squeeze"
  input: "StatefulPartitionedCall/StatefulPartitionedCall/StatefulPartitionedCall/encoder_1/conv1d_2_1/Reshape"
  attr {
    key: "T"
    value {
      type: DT_FLOAT
    }
  }
  attr {
    key: "squeeze_dims"
    value {
      list {
      }
    }
  }
}
node {
  name: "StatefulPartitionedCall/StatefulPartitionedCall/StatefulPartitionedCall/encoder_1/conv1d_2_1/BiasAdd"
  op: "BiasAdd"
  input: "StatefulPartitionedCall/StatefulPartitionedCall/StatefulPartitionedCall/encoder_1/conv1d_2_1/convolution/Squeeze"
  input: "StatefulPartitionedCall/StatefulPartitionedCall/StatefulPartitionedCall/encoder_1/conv1d_2_1/Squeeze"
  attr {
    key: "T"
    value {
      type: DT_FLOAT
    }
  }
  attr {
    key: "data_format"
    value {
      s: "NHWC"
    }
  }
}
node {
  name: "StatefulPartitionedCall/StatefulPartitionedCall/StatefulPartitionedCall/encoder_1/leaky_re_lu_2_1/LeakyRelu"
  op: "LeakyRelu"
  input: "StatefulPartitionedCall/StatefulPartitionedCall/StatefulPartitionedCall/encoder_1/conv1d_2_1/BiasAdd"
  attr {
    key: "T"
    value {
      type: DT_FLOAT
    }
  }
  attr {
    key: "alpha"
    value {
      f: 0.30000001192092896
    }
  }
}
node {
  name: "StatefulPartitionedCall/StatefulPartitionedCall/StatefulPartitionedCall/encoder_1/conv1d_3_1/convolution/ExpandDims/dim"
  op: "Const"
  input: "^Func/StatefulPartitionedCall/StatefulPartitionedCall/StatefulPartitionedCall/input_control_node/_33"
  attr {
    key: "dtype"
    value {
      type: DT_INT32
    }
  }
  attr {
    key: "value"
    value {
      tensor {
        dtype: DT_INT32
        tensor_shape {
        }
        int_val: -3
      }
    }
  }
}
node {
  name: "StatefulPartitionedCall/StatefulPartitionedCall/StatefulPartitionedCall/encoder_1/conv1d_3_1/convolution/ExpandDims"
  op: "ExpandDims"
  input: "StatefulPartitionedCall/StatefulPartitionedCall/StatefulPartitionedCall/encoder_1/leaky_re_lu_2_1/LeakyRelu"
  input: "StatefulPartitionedCall/StatefulPartitionedCall/StatefulPartitionedCall/encoder_1/conv1d_3_1/convolution/ExpandDims/dim"
  attr {
    key: "T"
    value {
      type: DT_FLOAT
    }
  }
  attr {
    key: "Tdim"
    value {
      type: DT_INT32
    }
  }
}
node {
  name: "Func/StatefulPartitionedCall/StatefulPartitionedCall/input/_24"
  op: "Identity"
  input: "Func/StatefulPartitionedCall/input/_7"
  input: "^Func/StatefulPartitionedCall/StatefulPartitionedCall/input_control_node/_16"
  attr {
    key: "T"
    value {
      type: DT_FLOAT
    }
  }
}
node {
  name: "Func/StatefulPartitionedCall/StatefulPartitionedCall/StatefulPartitionedCall/input/_41"
  op: "Identity"
  input: "Func/StatefulPartitionedCall/StatefulPartitionedCall/input/_24"
  input: "^Func/StatefulPartitionedCall/StatefulPartitionedCall/StatefulPartitionedCall/input_control_node/_33"
  attr {
    key: "T"
    value {
      type: DT_FLOAT
    }
  }
}
node {
  name: "StatefulPartitionedCall/StatefulPartitionedCall/StatefulPartitionedCall/encoder_1/conv1d_3_1/convolution/ExpandDims_1/ReadVariableOp"
  op: "Identity"
  input: "Func/StatefulPartitionedCall/StatefulPartitionedCall/StatefulPartitionedCall/input/_41"
  attr {
    key: "T"
    value {
      type: DT_FLOAT
    }
  }
  attr {
    key: "_has_manual_control_dependencies"
    value {
      b: true
    }
  }
}
node {
  name: "StatefulPartitionedCall/StatefulPartitionedCall/StatefulPartitionedCall/encoder_1/conv1d_3_1/convolution/ExpandDims_1/dim"
  op: "Const"
  input: "^Func/StatefulPartitionedCall/StatefulPartitionedCall/StatefulPartitionedCall/input_control_node/_33"
  attr {
    key: "dtype"
    value {
      type: DT_INT32
    }
  }
  attr {
    key: "value"
    value {
      tensor {
        dtype: DT_INT32
        tensor_shape {
        }
      }
    }
  }
}
node {
  name: "StatefulPartitionedCall/StatefulPartitionedCall/StatefulPartitionedCall/encoder_1/conv1d_3_1/convolution/ExpandDims_1"
  op: "ExpandDims"
  input: "StatefulPartitionedCall/StatefulPartitionedCall/StatefulPartitionedCall/encoder_1/conv1d_3_1/convolution/ExpandDims_1/ReadVariableOp"
  input: "StatefulPartitionedCall/StatefulPartitionedCall/StatefulPartitionedCall/encoder_1/conv1d_3_1/convolution/ExpandDims_1/dim"
  attr {
    key: "T"
    value {
      type: DT_FLOAT
    }
  }
  attr {
    key: "Tdim"
    value {
      type: DT_INT32
    }
  }
}
node {
  name: "StatefulPartitionedCall/StatefulPartitionedCall/StatefulPartitionedCall/encoder_1/conv1d_3_1/convolution"
  op: "Conv2D"
  input: "StatefulPartitionedCall/StatefulPartitionedCall/StatefulPartitionedCall/encoder_1/conv1d_3_1/convolution/ExpandDims"
  input: "StatefulPartitionedCall/StatefulPartitionedCall/StatefulPartitionedCall/encoder_1/conv1d_3_1/convolution/ExpandDims_1"
  attr {
    key: "T"
    value {
      type: DT_FLOAT
    }
  }
  attr {
    key: "data_format"
    value {
      s: "NHWC"
    }
  }
  attr {
    key: "dilations"
    value {
      list {
        i: 1
        i: 1
        i: 1
        i: 1
      }
    }
  }
  attr {
    key: "explicit_paddings"
    value {
      list {
      }
    }
  }
  attr {
    key: "padding"
    value {
      s: "SAME"
    }
  }
  attr {
    key: "strides"
    value {
      list {
        i: 1
        i: 1
        i: 2
        i: 1
      }
    }
  }
  attr {
    key: "use_cudnn_on_gpu"
    value {
      b: true
    }
  }
}
node {
  name: "StatefulPartitionedCall/StatefulPartitionedCall/StatefulPartitionedCall/encoder_1/conv1d_3_1/convolution/Squeeze"
  op: "Squeeze"
  input: "StatefulPartitionedCall/StatefulPartitionedCall/StatefulPartitionedCall/encoder_1/conv1d_3_1/convolution"
  attr {
    key: "T"
    value {
      type: DT_FLOAT
    }
  }
  attr {
    key: "squeeze_dims"
    value {
      list {
        i: -3
      }
    }
  }
}
node {
  name: "Func/StatefulPartitionedCall/StatefulPartitionedCall/input/_25"
  op: "Identity"
  input: "Func/StatefulPartitionedCall/input/_8"
  input: "^Func/StatefulPartitionedCall/StatefulPartitionedCall/input_control_node/_16"
  attr {
    key: "T"
    value {
      type: DT_FLOAT
    }
  }
}
node {
  name: "Func/StatefulPartitionedCall/StatefulPartitionedCall/StatefulPartitionedCall/input/_42"
  op: "Identity"
  input: "Func/StatefulPartitionedCall/StatefulPartitionedCall/input/_25"
  input: "^Func/StatefulPartitionedCall/StatefulPartitionedCall/StatefulPartitionedCall/input_control_node/_33"
  attr {
    key: "T"
    value {
      type: DT_FLOAT
    }
  }
}
node {
  name: "StatefulPartitionedCall/StatefulPartitionedCall/StatefulPartitionedCall/encoder_1/conv1d_3_1/Reshape/ReadVariableOp"
  op: "Identity"
  input: "Func/StatefulPartitionedCall/StatefulPartitionedCall/StatefulPartitionedCall/input/_42"
  attr {
    key: "T"
    value {
      type: DT_FLOAT
    }
  }
  attr {
    key: "_has_manual_control_dependencies"
    value {
      b: true
    }
  }
}
node {
  name: "StatefulPartitionedCall/StatefulPartitionedCall/StatefulPartitionedCall/encoder_1/conv1d_3_1/Reshape/shape"
  op: "Const"
  input: "^Func/StatefulPartitionedCall/StatefulPartitionedCall/StatefulPartitionedCall/input_control_node/_33"
  attr {
    key: "dtype"
    value {
      type: DT_INT32
    }
  }
  attr {
    key: "value"
    value {
      tensor {
        dtype: DT_INT32
        tensor_shape {
          dim {
            size: 3
          }
        }
        tensor_content: "\001\000\000\000\001\000\000\000@\000\000\000"
      }
    }
  }
}
node {
  name: "StatefulPartitionedCall/StatefulPartitionedCall/StatefulPartitionedCall/encoder_1/conv1d_3_1/Reshape"
  op: "Reshape"
  input: "StatefulPartitionedCall/StatefulPartitionedCall/StatefulPartitionedCall/encoder_1/conv1d_3_1/Reshape/ReadVariableOp"
  input: "StatefulPartitionedCall/StatefulPartitionedCall/StatefulPartitionedCall/encoder_1/conv1d_3_1/Reshape/shape"
  attr {
    key: "T"
    value {
      type: DT_FLOAT
    }
  }
  attr {
    key: "Tshape"
    value {
      type: DT_INT32
    }
  }
}
node {
  name: "StatefulPartitionedCall/StatefulPartitionedCall/StatefulPartitionedCall/encoder_1/conv1d_3_1/Squeeze"
  op: "Squeeze"
  input: "StatefulPartitionedCall/StatefulPartitionedCall/StatefulPartitionedCall/encoder_1/conv1d_3_1/Reshape"
  attr {
    key: "T"
    value {
      type: DT_FLOAT
    }
  }
  attr {
    key: "squeeze_dims"
    value {
      list {
      }
    }
  }
}
node {
  name: "StatefulPartitionedCall/StatefulPartitionedCall/StatefulPartitionedCall/encoder_1/conv1d_3_1/BiasAdd"
  op: "BiasAdd"
  input: "StatefulPartitionedCall/StatefulPartitionedCall/StatefulPartitionedCall/encoder_1/conv1d_3_1/convolution/Squeeze"
  input: "StatefulPartitionedCall/StatefulPartitionedCall/StatefulPartitionedCall/encoder_1/conv1d_3_1/Squeeze"
  attr {
    key: "T"
    value {
      type: DT_FLOAT
    }
  }
  attr {
    key: "data_format"
    value {
      s: "NHWC"
    }
  }
}
node {
  name: "StatefulPartitionedCall/StatefulPartitionedCall/StatefulPartitionedCall/encoder_1/leaky_re_lu_3_1/LeakyRelu"
  op: "LeakyRelu"
  input: "StatefulPartitionedCall/StatefulPartitionedCall/StatefulPartitionedCall/encoder_1/conv1d_3_1/BiasAdd"
  attr {
    key: "T"
    value {
      type: DT_FLOAT
    }
  }
  attr {
    key: "alpha"
    value {
      f: 0.30000001192092896
    }
  }
}
node {
  name: "StatefulPartitionedCall/StatefulPartitionedCall/StatefulPartitionedCall/encoder_1/flatten_1/Reshape/shape"
  op: "Const"
  input: "^Func/StatefulPartitionedCall/StatefulPartitionedCall/StatefulPartitionedCall/input_control_node/_33"
  attr {
    key: "dtype"
    value {
      type: DT_INT32
    }
  }
  attr {
    key: "value"
    value {
      tensor {
        dtype: DT_INT32
        tensor_shape {
          dim {
            size: 2
          }
        }
        tensor_content: "\377\377\377\377\300\003\000\000"
      }
    }
  }
}
node {
  name: "StatefulPartitionedCall/StatefulPartitionedCall/StatefulPartitionedCall/encoder_1/flatten_1/Reshape"
  op: "Reshape"
  input: "StatefulPartitionedCall/StatefulPartitionedCall/StatefulPartitionedCall/encoder_1/leaky_re_lu_3_1/LeakyRelu"
  input: "StatefulPartitionedCall/StatefulPartitionedCall/StatefulPartitionedCall/encoder_1/flatten_1/Reshape/shape"
  attr {
    key: "T"
    value {
      type: DT_FLOAT
    }
  }
  attr {
    key: "Tshape"
    value {
      type: DT_INT32
    }
  }
}
node {
  name: "Func/StatefulPartitionedCall/StatefulPartitionedCall/input/_28"
  op: "Identity"
  input: "Func/StatefulPartitionedCall/input/_11"
  input: "^Func/StatefulPartitionedCall/StatefulPartitionedCall/input_control_node/_16"
  attr {
    key: "T"
    value {
      type: DT_FLOAT
    }
  }
}
node {
  name: "Func/StatefulPartitionedCall/StatefulPartitionedCall/StatefulPartitionedCall/input/_45"
  op: "Identity"
  input: "Func/StatefulPartitionedCall/StatefulPartitionedCall/input/_28"
  input: "^Func/StatefulPartitionedCall/StatefulPartitionedCall/StatefulPartitionedCall/input_control_node/_33"
  attr {
    key: "T"
    value {
      type: DT_FLOAT
    }
  }
}
node {
  name: "StatefulPartitionedCall/StatefulPartitionedCall/StatefulPartitionedCall/encoder_1/z_mean_1/Cast/ReadVariableOp"
  op: "Identity"
  input: "Func/StatefulPartitionedCall/StatefulPartitionedCall/StatefulPartitionedCall/input/_45"
  attr {
    key: "T"
    value {
      type: DT_FLOAT
    }
  }
  attr {
    key: "_has_manual_control_dependencies"
    value {
      b: true
    }
  }
}
node {
  name: "StatefulPartitionedCall/StatefulPartitionedCall/StatefulPartitionedCall/encoder_1/z_mean_1/MatMul"
  op: "MatMul"
  input: "StatefulPartitionedCall/StatefulPartitionedCall/StatefulPartitionedCall/encoder_1/flatten_1/Reshape"
  input: "StatefulPartitionedCall/StatefulPartitionedCall/StatefulPartitionedCall/encoder_1/z_mean_1/Cast/ReadVariableOp"
  attr {
    key: "T"
    value {
      type: DT_FLOAT
    }
  }
  attr {
    key: "grad_a"
    value {
      b: false
    }
  }
  attr {
    key: "grad_b"
    value {
      b: false
    }
  }
  attr {
    key: "transpose_a"
    value {
      b: false
    }
  }
  attr {
    key: "transpose_b"
    value {
      b: false
    }
  }
}
node {
  name: "Func/StatefulPartitionedCall/StatefulPartitionedCall/input/_29"
  op: "Identity"
  input: "Func/StatefulPartitionedCall/input/_12"
  input: "^Func/StatefulPartitionedCall/StatefulPartitionedCall/input_control_node/_16"
  attr {
    key: "T"
    value {
      type: DT_FLOAT
    }
  }
}
node {
  name: "Func/StatefulPartitionedCall/StatefulPartitionedCall/StatefulPartitionedCall/input/_46"
  op: "Identity"
  input: "Func/StatefulPartitionedCall/StatefulPartitionedCall/input/_29"
  input: "^Func/StatefulPartitionedCall/StatefulPartitionedCall/StatefulPartitionedCall/input_control_node/_33"
  attr {
    key: "T"
    value {
      type: DT_FLOAT
    }
  }
}
node {
  name: "StatefulPartitionedCall/StatefulPartitionedCall/StatefulPartitionedCall/encoder_1/z_mean_1/BiasAdd/ReadVariableOp"
  op: "Identity"
  input: "Func/StatefulPartitionedCall/StatefulPartitionedCall/StatefulPartitionedCall/input/_46"
  attr {
    key: "T"
    value {
      type: DT_FLOAT
    }
  }
  attr {
    key: "_has_manual_control_dependencies"
    value {
      b: true
    }
  }
}
node {
  name: "StatefulPartitionedCall/StatefulPartitionedCall/StatefulPartitionedCall/encoder_1/z_mean_1/BiasAdd"
  op: "BiasAdd"
  input: "StatefulPartitionedCall/StatefulPartitionedCall/StatefulPartitionedCall/encoder_1/z_mean_1/MatMul"
  input: "StatefulPartitionedCall/StatefulPartitionedCall/StatefulPartitionedCall/encoder_1/z_mean_1/BiasAdd/ReadVariableOp"
  attr {
    key: "T"
    value {
      type: DT_FLOAT
    }
  }
  attr {
    key: "data_format"
    value {
      s: "NHWC"
    }
  }
}
node {
  name: "Func/StatefulPartitionedCall/StatefulPartitionedCall/input/_27"
  op: "Identity"
  input: "Func/StatefulPartitionedCall/input/_10"
  input: "^Func/StatefulPartitionedCall/StatefulPartitionedCall/input_control_node/_16"
  attr {
    key: "T"
    value {
      type: DT_FLOAT
    }
  }
}
node {
  name: "Func/StatefulPartitionedCall/StatefulPartitionedCall/StatefulPartitionedCall/input/_44"
  op: "Identity"
  input: "Func/StatefulPartitionedCall/StatefulPartitionedCall/input/_27"
  input: "^Func/StatefulPartitionedCall/StatefulPartitionedCall/StatefulPartitionedCall/input_control_node/_33"
  attr {
    key: "T"
    value {
      type: DT_FLOAT
    }
  }
}
node {
  name: "StatefulPartitionedCall/StatefulPartitionedCall/StatefulPartitionedCall/encoder_1/z_log_var_1/BiasAdd/ReadVariableOp"
  op: "Identity"
  input: "Func/StatefulPartitionedCall/StatefulPartitionedCall/StatefulPartitionedCall/input/_44"
  attr {
    key: "T"
    value {
      type: DT_FLOAT
    }
  }
  attr {
    key: "_has_manual_control_dependencies"
    value {
      b: true
    }
  }
}
node {
  name: "Func/StatefulPartitionedCall/StatefulPartitionedCall/input/_26"
  op: "Identity"
  input: "Func/StatefulPartitionedCall/input/_9"
  input: "^Func/StatefulPartitionedCall/StatefulPartitionedCall/input_control_node/_16"
  attr {
    key: "T"
    value {
      type: DT_FLOAT
    }
  }
}
node {
  name: "Func/StatefulPartitionedCall/StatefulPartitionedCall/StatefulPartitionedCall/input/_43"
  op: "Identity"
  input: "Func/StatefulPartitionedCall/StatefulPartitionedCall/input/_26"
  input: "^Func/StatefulPartitionedCall/StatefulPartitionedCall/StatefulPartitionedCall/input_control_node/_33"
  attr {
    key: "T"
    value {
      type: DT_FLOAT
    }
  }
}
node {
  name: "StatefulPartitionedCall/StatefulPartitionedCall/StatefulPartitionedCall/encoder_1/z_log_var_1/Cast/ReadVariableOp"
  op: "Identity"
  input: "Func/StatefulPartitionedCall/StatefulPartitionedCall/StatefulPartitionedCall/input/_43"
  attr {
    key: "T"
    value {
      type: DT_FLOAT
    }
  }
  attr {
    key: "_has_manual_control_dependencies"
    value {
      b: true
    }
  }
}
node {
  name: "StatefulPartitionedCall/StatefulPartitionedCall/StatefulPartitionedCall/NoOp"
  op: "NoOp"
  input: "^StatefulPartitionedCall/StatefulPartitionedCall/StatefulPartitionedCall/encoder_1/conv1d_1/Reshape/ReadVariableOp"
  input: "^StatefulPartitionedCall/StatefulPartitionedCall/StatefulPartitionedCall/encoder_1/conv1d_1/convolution/ExpandDims_1/ReadVariableOp"
  input: "^StatefulPartitionedCall/StatefulPartitionedCall/StatefulPartitionedCall/encoder_1/conv1d_1_2/Reshape/ReadVariableOp"
  input: "^StatefulPartitionedCall/StatefulPartitionedCall/StatefulPartitionedCall/encoder_1/conv1d_1_2/convolution/ExpandDims_1/ReadVariableOp"
  input: "^StatefulPartitionedCall/StatefulPartitionedCall/StatefulPartitionedCall/encoder_1/conv1d_2_1/Reshape/ReadVariableOp"
  input: "^StatefulPartitionedCall/StatefulPartitionedCall/StatefulPartitionedCall/encoder_1/conv1d_2_1/convolution/ExpandDims_1/ReadVariableOp"
  input: "^StatefulPartitionedCall/StatefulPartitionedCall/StatefulPartitionedCall/encoder_1/conv1d_3_1/Reshape/ReadVariableOp"
  input: "^StatefulPartitionedCall/StatefulPartitionedCall/StatefulPartitionedCall/encoder_1/conv1d_3_1/convolution/ExpandDims_1/ReadVariableOp"
  input: "^StatefulPartitionedCall/StatefulPartitionedCall/StatefulPartitionedCall/encoder_1/z_log_var_1/BiasAdd/ReadVariableOp"
  input: "^StatefulPartitionedCall/StatefulPartitionedCall/StatefulPartitionedCall/encoder_1/z_log_var_1/Cast/ReadVariableOp"
  input: "^StatefulPartitionedCall/StatefulPartitionedCall/StatefulPartitionedCall/encoder_1/z_mean_1/BiasAdd/ReadVariableOp"
  input: "^StatefulPartitionedCall/StatefulPartitionedCall/StatefulPartitionedCall/encoder_1/z_mean_1/Cast/ReadVariableOp"
  attr {
    key: "_has_manual_control_dependencies"
    value {
      b: true
    }
  }
}
node {
  name: "StatefulPartitionedCall/StatefulPartitionedCall/StatefulPartitionedCall/Identity"
  op: "Identity"
  input: "StatefulPartitionedCall/StatefulPartitionedCall/StatefulPartitionedCall/encoder_1/z_mean_1/BiasAdd"
  input: "^StatefulPartitionedCall/StatefulPartitionedCall/StatefulPartitionedCall/NoOp"
  attr {
    key: "T"
    value {
      type: DT_FLOAT
    }
  }
}
node {
  name: "Func/StatefulPartitionedCall/StatefulPartitionedCall/StatefulPartitionedCall/output/_47"
  op: "Identity"
  input: "StatefulPartitionedCall/StatefulPartitionedCall/StatefulPartitionedCall/Identity"
  attr {
    key: "T"
    value {
      type: DT_FLOAT
    }
  }
}
node {
  name: "Func/StatefulPartitionedCall/StatefulPartitionedCall/StatefulPartitionedCall/output_control_node/_49"
  op: "NoOp"
  input: "^StatefulPartitionedCall/StatefulPartitionedCall/StatefulPartitionedCall/encoder_1/conv1d_1/Reshape/ReadVariableOp"
  input: "^StatefulPartitionedCall/StatefulPartitionedCall/StatefulPartitionedCall/encoder_1/conv1d_1/convolution/ExpandDims_1/ReadVariableOp"
  input: "^StatefulPartitionedCall/StatefulPartitionedCall/StatefulPartitionedCall/encoder_1/conv1d_1_2/Reshape/ReadVariableOp"
  input: "^StatefulPartitionedCall/StatefulPartitionedCall/StatefulPartitionedCall/encoder_1/conv1d_1_2/convolution/ExpandDims_1/ReadVariableOp"
  input: "^StatefulPartitionedCall/StatefulPartitionedCall/StatefulPartitionedCall/encoder_1/conv1d_2_1/Reshape/ReadVariableOp"
  input: "^StatefulPartitionedCall/StatefulPartitionedCall/StatefulPartitionedCall/encoder_1/conv1d_2_1/convolution/ExpandDims_1/ReadVariableOp"
  input: "^StatefulPartitionedCall/StatefulPartitionedCall/StatefulPartitionedCall/encoder_1/conv1d_3_1/Reshape/ReadVariableOp"
  input: "^StatefulPartitionedCall/StatefulPartitionedCall/StatefulPartitionedCall/encoder_1/conv1d_3_1/convolution/ExpandDims_1/ReadVariableOp"
  input: "^StatefulPartitionedCall/StatefulPartitionedCall/StatefulPartitionedCall/encoder_1/z_log_var_1/BiasAdd/ReadVariableOp"
  input: "^StatefulPartitionedCall/StatefulPartitionedCall/StatefulPartitionedCall/encoder_1/z_log_var_1/Cast/ReadVariableOp"
  input: "^StatefulPartitionedCall/StatefulPartitionedCall/StatefulPartitionedCall/encoder_1/z_mean_1/BiasAdd/ReadVariableOp"
  input: "^StatefulPartitionedCall/StatefulPartitionedCall/StatefulPartitionedCall/encoder_1/z_mean_1/Cast/ReadVariableOp"
  attr {
    key: "_has_manual_control_dependencies"
    value {
      b: true
    }
  }
}
node {
  name: "StatefulPartitionedCall/StatefulPartitionedCall/NoOp"
  op: "NoOp"
  input: "^Func/StatefulPartitionedCall/StatefulPartitionedCall/StatefulPartitionedCall/output_control_node/_49"
  attr {
    key: "_has_manual_control_dependencies"
    value {
      b: true
    }
  }
}
node {
  name: "StatefulPartitionedCall/StatefulPartitionedCall/Identity"
  op: "Identity"
  input: "Func/StatefulPartitionedCall/StatefulPartitionedCall/StatefulPartitionedCall/output/_47"
  input: "^StatefulPartitionedCall/StatefulPartitionedCall/NoOp"
  attr {
    key: "T"
    value {
      type: DT_FLOAT
    }
  }
}
node {
  name: "Func/StatefulPartitionedCall/StatefulPartitionedCall/output/_30"
  op: "Identity"
  input: "StatefulPartitionedCall/StatefulPartitionedCall/Identity"
  attr {
    key: "T"
    value {
      type: DT_FLOAT
    }
  }
}
node {
  name: "Func/StatefulPartitionedCall/StatefulPartitionedCall/output_control_node/_32"
  op: "NoOp"
  input: "^Func/StatefulPartitionedCall/StatefulPartitionedCall/StatefulPartitionedCall/output_control_node/_49"
  attr {
    key: "_has_manual_control_dependencies"
    value {
      b: true
    }
  }
}
node {
  name: "StatefulPartitionedCall/NoOp"
  op: "NoOp"
  input: "^Func/StatefulPartitionedCall/StatefulPartitionedCall/output_control_node/_32"
  attr {
    key: "_has_manual_control_dependencies"
    value {
      b: true
    }
  }
}
node {
  name: "StatefulPartitionedCall/Identity"
  op: "Identity"
  input: "Func/StatefulPartitionedCall/StatefulPartitionedCall/output/_30"
  input: "^StatefulPartitionedCall/NoOp"
  attr {
    key: "T"
    value {
      type: DT_FLOAT
    }
  }
}
node {
  name: "Func/StatefulPartitionedCall/output/_13"
  op: "Identity"
  input: "StatefulPartitionedCall/Identity"
  attr {
    key: "T"
    value {
      type: DT_FLOAT
    }
  }
}
node {
  name: "Func/StatefulPartitionedCall/output_control_node/_15"
  op: "NoOp"
  input: "^Func/StatefulPartitionedCall/StatefulPartitionedCall/output_control_node/_32"
  attr {
    key: "_has_manual_control_dependencies"
    value {
      b: true
    }
  }
}
node {
  name: "NoOp"
  op: "NoOp"
  input: "^Func/StatefulPartitionedCall/output_control_node/_15"
  attr {
    key: "_has_manual_control_dependencies"
    value {
      b: true
    }
  }
}
node {
  name: "Identity"
  op: "Identity"
  input: "Func/StatefulPartitionedCall/output/_13"
  input: "^NoOp"
  attr {
    key: "T"
    value {
      type: DT_FLOAT
    }
  }
}
node {
  name: "StatefulPartitionedCall/StatefulPartitionedCall/StatefulPartitionedCall/encoder_1/z_log_var_1/MatMul"
  op: "MatMul"
  input: "StatefulPartitionedCall/StatefulPartitionedCall/StatefulPartitionedCall/encoder_1/flatten_1/Reshape"
  input: "StatefulPartitionedCall/StatefulPartitionedCall/StatefulPartitionedCall/encoder_1/z_log_var_1/Cast/ReadVariableOp"
  attr {
    key: "T"
    value {
      type: DT_FLOAT
    }
  }
  attr {
    key: "grad_a"
    value {
      b: false
    }
  }
  attr {
    key: "grad_b"
    value {
      b: false
    }
  }
  attr {
    key: "transpose_a"
    value {
      b: false
    }
  }
  attr {
    key: "transpose_b"
    value {
      b: false
    }
  }
}
node {
  name: "StatefulPartitionedCall/StatefulPartitionedCall/StatefulPartitionedCall/encoder_1/z_log_var_1/BiasAdd"
  op: "BiasAdd"
  input: "StatefulPartitionedCall/StatefulPartitionedCall/StatefulPartitionedCall/encoder_1/z_log_var_1/MatMul"
  input: "StatefulPartitionedCall/StatefulPartitionedCall/StatefulPartitionedCall/encoder_1/z_log_var_1/BiasAdd/ReadVariableOp"
  attr {
    key: "T"
    value {
      type: DT_FLOAT
    }
  }
  attr {
    key: "data_format"
    value {
      s: "NHWC"
    }
  }
}
node {
  name: "StatefulPartitionedCall/StatefulPartitionedCall/StatefulPartitionedCall/Identity_1"
  op: "Identity"
  input: "StatefulPartitionedCall/StatefulPartitionedCall/StatefulPartitionedCall/encoder_1/z_log_var_1/BiasAdd"
  input: "^StatefulPartitionedCall/StatefulPartitionedCall/StatefulPartitionedCall/NoOp"
  attr {
    key: "T"
    value {
      type: DT_FLOAT
    }
  }
}
node {
  name: "Func/StatefulPartitionedCall/StatefulPartitionedCall/StatefulPartitionedCall/output/_48"
  op: "Identity"
  input: "StatefulPartitionedCall/StatefulPartitionedCall/StatefulPartitionedCall/Identity_1"
  attr {
    key: "T"
    value {
      type: DT_FLOAT
    }
  }
}
node {
  name: "StatefulPartitionedCall/StatefulPartitionedCall/Identity_1"
  op: "Identity"
  input: "Func/StatefulPartitionedCall/StatefulPartitionedCall/StatefulPartitionedCall/output/_48"
  input: "^StatefulPartitionedCall/StatefulPartitionedCall/NoOp"
  attr {
    key: "T"
    value {
      type: DT_FLOAT
    }
  }
}
node {
  name: "Func/StatefulPartitionedCall/StatefulPartitionedCall/output/_31"
  op: "Identity"
  input: "StatefulPartitionedCall/StatefulPartitionedCall/Identity_1"
  attr {
    key: "T"
    value {
      type: DT_FLOAT
    }
  }
}
node {
  name: "StatefulPartitionedCall/Identity_1"
  op: "Identity"
  input: "Func/StatefulPartitionedCall/StatefulPartitionedCall/output/_31"
  input: "^StatefulPartitionedCall/NoOp"
  attr {
    key: "T"
    value {
      type: DT_FLOAT
    }
  }
}
node {
  name: "Func/StatefulPartitionedCall/output/_14"
  op: "Identity"
  input: "StatefulPartitionedCall/Identity_1"
  attr {
    key: "T"
    value {
      type: DT_FLOAT
    }
  }
}
node {
  name: "Identity_1"
  op: "Identity"
  input: "Func/StatefulPartitionedCall/output/_14"
  input: "^NoOp"
  attr {
    key: "T"
    value {
      type: DT_FLOAT
    }
  }
}
versions {
  producer: 1882
}
