module attributes {torch.debug_module_name = "CorrelationV1"} {
  func.func @forward(%arg0: tensor<1400x1200xf32>) -> tensor<1200x1200xf32> {
    %0 = "tosa.const"() <{value = dense<1.400000e+03> : tensor<f32>}> : () -> tensor<f32>
    %1 = "tosa.const"() <{value = dense<5.000000e-01> : tensor<f32>}> : () -> tensor<f32>
    %2 = "tosa.const"() <{value = dense<[1, 0]> : tensor<2xi32>}> : () -> tensor<2xi32>
    %3 = "tosa.const"() <{value = dense<"…"> : tensor<1200xi64>}> : () -> tensor<1200xi64>
    %4 = "tosa.const"() <{value = dense<7.14285707E-4> : tensor<1xf32>}> : () -> tensor<1xf32>
    %5 = "tosa.const"() <{value = dense<5.000000e-01> : tensor<1xf32>}> : () -> tensor<1xf32>
    %6 = "tosa.const"() <{value = dense<1.000000e-01> : tensor<1200xf32>}> : () -> tensor<1200xf32>
    %7 = "tosa.const"() <{value = dense<1.000000e+00> : tensor<1200xf32>}> : () -> tensor<1200xf32>
    %8 = "tosa.const"() <{value = dense<5.000000e-01> : tensor<1x1xf32>}> : () -> tensor<1x1xf32>
    %9 = "tosa.const"() <{value = dense<1.000000e+00> : tensor<1x1xf32>}> : () -> tensor<1x1xf32>
    %10 = "tosa.const"() <{value = dense<0.000000e+00> : tensor<1x1xf32>}> : () -> tensor<1x1xf32>
    %11 = tosa.reduce_sum %arg0 {axis = 0 : i32} : (tensor<1400x1200xf32>) -> tensor<1x1200xf32>
    %12 = tosa.reshape %11 {new_shape = array<i64: 1200>} : (tensor<1x1200xf32>) -> tensor<1200xf32>
    %13 = tosa.mul %12, %4 {shift = 0 : i8} : (tensor<1200xf32>, tensor<1xf32>) -> tensor<1200xf32>
    %14 = tosa.reshape %13 {new_shape = array<i64: 1, 1200>} : (tensor<1200xf32>) -> tensor<1x1200xf32>
    %15 = tosa.sub %arg0, %14 : (tensor<1400x1200xf32>, tensor<1x1200xf32>) -> tensor<1400x1200xf32>
    %16 = tosa.mul %15, %15 {shift = 0 : i8} : (tensor<1400x1200xf32>, tensor<1400x1200xf32>) -> tensor<1400x1200xf32>
    %17 = tosa.reduce_sum %16 {axis = 0 : i32} : (tensor<1400x1200xf32>) -> tensor<1x1200xf32>
    %18 = tosa.reshape %17 {new_shape = array<i64: 1200>} : (tensor<1x1200xf32>) -> tensor<1200xf32>
    %19 = tosa.mul %18, %4 {shift = 0 : i8} : (tensor<1200xf32>, tensor<1xf32>) -> tensor<1200xf32>
    %20 = tosa.pow %19, %5 : (tensor<1200xf32>, tensor<1xf32>) -> tensor<1200xf32>
    %21 = tosa.greater %20, %6 : (tensor<1200xf32>, tensor<1200xf32>) -> tensor<1200xi1>
    %22 = tosa.select %21, %20, %7 : (tensor<1200xi1>, tensor<1200xf32>, tensor<1200xf32>) -> tensor<1200xf32>
    %23 = tosa.pow %0, %1 : (tensor<f32>, tensor<f32>) -> tensor<f32>
    %24 = tosa.reshape %23 {new_shape = array<i64: 1>} : (tensor<f32>) -> tensor<1xf32>
    %25 = tosa.mul %24, %22 {shift = 0 : i8} : (tensor<1xf32>, tensor<1200xf32>) -> tensor<1200xf32>
    %26 = tosa.reciprocal %25 : (tensor<1200xf32>) -> tensor<1200xf32>
    %27 = tosa.reshape %26 {new_shape = array<i64: 1, 1200>} : (tensor<1200xf32>) -> tensor<1x1200xf32>
    %28 = tosa.mul %15, %27 {shift = 0 : i8} : (tensor<1400x1200xf32>, tensor<1x1200xf32>) -> tensor<1400x1200xf32>
    %29 = tosa.transpose %28, %2 : (tensor<1400x1200xf32>, tensor<2xi32>) -> tensor<1200x1400xf32>
    %30 = tosa.reshape %29 {new_shape = array<i64: 1, 1200, 1400>} : (tensor<1200x1400xf32>) -> tensor<1x1200x1400xf32>
    %31 = tosa.reshape %28 {new_shape = array<i64: 1, 1400, 1200>} : (tensor<1400x1200xf32>) -> tensor<1x1400x1200xf32>
    %32 = tosa.matmul %30, %31 : (tensor<1x1200x1400xf32>, tensor<1x1400x1200xf32>) -> tensor<1x1200x1200xf32>
    %33 = tosa.reshape %32 {new_shape = array<i64: 1200, 1200>} : (tensor<1x1200x1200xf32>) -> tensor<1200x1200xf32>
    %34 = tosa.transpose %33, %2 : (tensor<1200x1200xf32>, tensor<2xi32>) -> tensor<1200x1200xf32>
    %35 = tosa.add %33, %34 : (tensor<1200x1200xf32>, tensor<1200x1200xf32>) -> tensor<1200x1200xf32>
    %36 = tosa.mul %35, %8 {shift = 0 : i8} : (tensor<1200x1200xf32>, tensor<1x1xf32>) -> tensor<1200x1200xf32>
    %37 = tosa.reshape %3 {new_shape = array<i64: 1200, 1>} : (tensor<1200xi64>) -> tensor<1200x1xi64>
    %38 = tosa.reshape %3 {new_shape = array<i64: 1, 1200>} : (tensor<1200xi64>) -> tensor<1x1200xi64>
    %39 = tosa.equal %37, %38 : (tensor<1200x1xi64>, tensor<1x1200xi64>) -> tensor<?x?xi1>
    %40 = tosa.select %39, %9, %10 : (tensor<?x?xi1>, tensor<1x1xf32>, tensor<1x1xf32>) -> tensor<?x?xf32>
    %41 = tosa.sub %9, %40 : (tensor<1x1xf32>, tensor<?x?xf32>) -> tensor<?x?xf32>
    %42 = tosa.mul %36, %41 {shift = 0 : i8} : (tensor<1200x1200xf32>, tensor<?x?xf32>) -> tensor<1200x1200xf32>
    %43 = tosa.add %42, %40 : (tensor<1200x1200xf32>, tensor<?x?xf32>) -> tensor<1200x1200xf32>
    return %43 : tensor<1200x1200xf32>
  }
}
