module attributes {tfl.description = "MLIR Converted.", tfl.metadata = {CONVERSION_METADATA = "\0C\00\00\00\08\00\0E\00\08\00\04\00\08\00\00\00\10\00\00\00(\00\00\00\00\00\06\00\08\00\04\00\06\00\00\00\04\00\00\00\01\00\00\00\E9\03\00\00\0C\00\18\00\14\00\10\00\0C\00\04\00\0C\00\00\00\82\E3\80\B1\C0\\\01\00\03\00\00\00\02\00\00\00\04\00\00\00\06\00\00\002.17.1\00\00", min_runtime_version = "1.15.0\00\00\00\00\00\00\00\00\00\00", reduced_precision_support = "fp16accfp32"}, tfl.schema_version = 3 : i32} {
  func.func @main(%arg0: tensor<?x240x1xf32>) -> (tensor<?x16xf32>, tensor<?x16xf32>) attributes {tf.entry_function = {inputs = "inputs", outputs = "Identity,Identity_1"}} {
    %0 = "tfl.pseudo_const"() <{value = dense<0.000000e+00> : tensor<64xf16>}> : () -> tensor<64xf16>
    %1 = "tfl.dequantize"(%0) : (tensor<64xf16>) -> tensor<64xf32>
    %2 = "tfl.pseudo_const"() <{value = dense<0.000000e+00> : tensor<32xf16>}> : () -> tensor<32xf16>
    %3 = "tfl.dequantize"(%2) : (tensor<32xf16>) -> tensor<32xf32>
    %4 = "tfl.pseudo_const"() <{value = dense<0.000000e+00> : tensor<16xf16>}> : () -> tensor<16xf16>
    %5 = "tfl.dequantize"(%4) : (tensor<16xf16>) -> tensor<16xf32>
    %6 = "tfl.pseudo_const"() <{value = dense<"…"> : tensor<64x1x3x32xf16>}> : () -> tensor<64x1x3x32xf16>
    %7 = "tfl.dequantize"(%6) : (tensor<64x1x3x32xf16>) -> tensor<64x1x3x32xf32>
    %8 = "tfl.pseudo_const"() <{value = dense<"…"> : tensor<32x1x3x32xf16>}> : () -> tensor<32x1x3x32xf16>
    %9 = "tfl.dequantize"(%8) : (tensor<32x1x3x32xf16>) -> tensor<32x1x3x32xf32>
    %10 = "tfl.pseudo_const"() <{value = dense<"…"> : tensor<32x1x7x16xf16>}> : () -> tensor<32x1x7x16xf16>
    %11 = "tfl.dequantize"(%10) : (tensor<32x1x7x16xf16>) -> tensor<32x1x7x16xf32>
    %12 = "tfl.pseudo_const"() <{value = dense<"…"> : tensor<16x1x7x1xf16>}> : () -> tensor<16x1x7x1xf16>
    %13 = "tfl.dequantize"(%12) : (tensor<16x1x7x1xf16>) -> tensor<16x1x7x1xf32>
    %14 = "tfl.pseudo_const"() <{value = dense<"…"> : tensor<16x960xf16>}> : () -> tensor<16x960xf16>
    %15 = "tfl.dequantize"(%14) : (tensor<16x960xf16>) -> tensor<16x960xf32>
    %16 = "tfl.pseudo_const"() <{value = dense<"…"> : tensor<16x960xf16>}> : () -> tensor<16x960xf16>
    %17 = "tfl.dequantize"(%16) : (tensor<16x960xf16>) -> tensor<16x960xf32>
    %18 = "tfl.pseudo_const"() <{value = dense<-3> : tensor<i32>}> : () -> tensor<i32>
    %19 = "tfl.expand_dims"(%arg0, %18) : (tensor<?x240x1xf32>, tensor<i32>) -> tensor<?x1x240x1xf32>
    %20 = "tfl.conv_2d"(%19, %13, %5) <{dilation_h_factor = 1 : i32, dilation_w_factor = 1 : i32, fused_activation_function = "NONE", padding = "SAME", stride_h = 1 : i32, stride_w = 2 : i32}> : (tensor<?x1x240x1xf32>, tensor<16x1x7x1xf32>, tensor<16xf32>) -> tensor<?x1x120x16xf32>
    %21 = "tfl.pseudo_const"() <{value = dense<[-1, 120, 16]> : tensor<3xi32>}> : () -> tensor<3xi32>
    %22 = "tfl.reshape"(%20, %21) : (tensor<?x1x120x16xf32>, tensor<3xi32>) -> tensor<?x120x16xf32>
    %23 = "tfl.leaky_relu"(%22) <{alpha = 3.000000e-01 : f32}> : (tensor<?x120x16xf32>) -> tensor<?x120x16xf32>
    %24 = "tfl.expand_dims"(%23, %18) : (tensor<?x120x16xf32>, tensor<i32>) -> tensor<?x1x120x16xf32>
    %25 = "tfl.conv_2d"(%24, %11, %3) <{dilation_h_factor = 1 : i32, dilation_w_factor = 1 : i32, fused_activation_function = "NONE", padding = "SAME", stride_h = 1 : i32, stride_w = 2 : i32}> : (tensor<?x1x120x16xf32>, tensor<32x1x7x16xf32>, tensor<32xf32>) -> tensor<?x1x60x32xf32>
    %26 = "tfl.pseudo_const"() <{value = dense<[-1, 60, 32]> : tensor<3xi32>}> : () -> tensor<3xi32>
    %27 = "tfl.reshape"(%25, %26) : (tensor<?x1x60x32xf32>, tensor<3xi32>) -> tensor<?x60x32xf32>
    %28 = "tfl.leaky_relu"(%27) <{alpha = 3.000000e-01 : f32}> : (tensor<?x60x32xf32>) -> tensor<?x60x32xf32>
    %29 = "tfl.expand_dims"(%28, %18) : (tensor<?x60x32xf32>, tensor<i32>) -> tensor<?x1x60x32xf32>
    %30 = "tfl.conv_2d"(%29, %9, %3) <{dilation_h_factor = 1 : i32, dilation_w_factor = 1 : i32, fused_activation_function = "NONE", padding = "SAME", stride_h = 1 : i32, stride_w = 2 : i32}> : (tensor<?x1x60x32xf32>, tensor<32x1x3x32xf32>, tensor<32xf32>) -> tensor<?x1x30x32xf32>
    %31 = "tfl.pseudo_const"() <{value = dense<[-1, 30, 32]> : tensor<3xi32>}> : () -> tensor<3xi32>
    %32 = "tfl.reshape"(%30, %31) : (tensor<?x1x30x32xf32>, tensor<3xi32>) -> tensor<?x30x32xf32>
    %33 = "tfl.leaky_relu"(%32) <{alpha = 3.000000e-01 : f32}> : (tensor<?x30x32xf32>) -> tensor<?x30x32xf32>
    %34 = "tfl.expand_dims"(%33, %18) : (tensor<?x30x32xf32>, tensor<i32>) -> tensor<?x1x30x32xf32>
    %35 = "tfl.conv_2d"(%34, %7, %1) <{dilation_h_factor = 1 : i32, dilation_w_factor = 1 : i32, fused_activation_function = "NONE", padding = "SAME", stride_h = 1 : i32, stride_w = 2 : i32}> : (tensor<?x1x30x32xf32>, tensor<64x1x3x32xf32>, tensor<64xf32>) -> tensor<?x1x15x64xf32>
    %36 = "tfl.pseudo_const"() <{value = dense<[-1, 15, 64]> : tensor<3xi32>}> : () -> tensor<3xi32>
    %37 = "tfl.reshape"(%35, %36) : (tensor<?x1x15x64xf32>, tensor<3xi32>) -> tensor<?x15x64xf32>
    %38 = "tfl.leaky_relu"(%37) <{alpha = 3.000000e-01 : f32}> : (tensor<?x15x64xf32>) -> tensor<?x15x64xf32>
    %39 = "tfl.pseudo_const"() <{value = dense<[-1, 960]> : tensor<2xi32>}> : () -> tensor<2xi32>
    %40 = "tfl.reshape"(%38, %39) : (tensor<?x15x64xf32>, tensor<2xi32>) -> tensor<?x960xf32>
    %41 = "tfl.no_value"() <{value}> : () -> none
    %42 = "tfl.fully_connected"(%40, %17, %41) <{asymmetric_quantize_inputs = false, fused_activation_function = "NONE", keep_num_dims = false, weights_format = "DEFAULT"}> : (tensor<?x960xf32>, tensor<16x960xf32>, none) -> tensor<?x16xf32>
    %43 = "tfl.fully_connected"(%40, %15, %41) <{asymmetric_quantize_inputs = false, fused_activation_function = "NONE", keep_num_dims = false, weights_format = "DEFAULT"}> : (tensor<?x960xf32>, tensor<16x960xf32>, none) -> tensor<?x16xf32>
    return %43, %42 : tensor<?x16xf32>, tensor<?x16xf32>
  }
}