module attributes {tfl.description = "MLIR Converted.", tfl.metadata = {CONVERSION_METADATA = "\0C\00\00\00\08\00\0E\00\08\00\04\00\08\00\00\00\10\00\00\00(\00\00\00\00\00\06\00\08\00\04\00\06\00\00\00\04\00\00\00\01\00\00\00\EA\03\00\00\0C\00\18\00\14\00\10\00\0C\00\04\00\0C\00\00\00\82\93x\0A\EA\D9\A2(\03\00\00\00\02\00\00\00\04\00\00\00\06\00\00\002.17.1\00\00", min_runtime_version = "2.17.0\00\00\00\00\00\00\00\00\00\00"}, tfl.schema_version = 3 : i32} {
  func.func @main(%arg0: tensor<?x240x1xf32>) -> (tensor<?x16xf32>, tensor<?x16xf32>) attributes {tf.entry_function = {inputs = "inputs", outputs = "Identity,Identity_1"}} {
    %0 = "tosa.const"() <{value = dense<3.000000e-01> : tensor<1x1x1xf32>}> : () -> tensor<1x1x1xf32>
    %1 = "tosa.const"() <{value = dense<[[… > : tensor<16x1xf32>}> : () -> tensor<16x1xf32>
    %2 = "tosa.const"() <{value = dense<"…"> : tensor<16x960xi8>}> : () -> tensor<16x960xi8>
    %3 = "tosa.const"() <{value = dense<[[… > : tensor<16x1xf32>}> : () -> tensor<16x1xf32>
    %4 = "tosa.const"() <{value = dense<"…"> : tensor<16x960xi8>}> : () -> tensor<16x960xi8>
    %5 = "tosa.const"() <{value = dense<[[[[… > : tensor<64x1x1x1xf32>}> : () -> tensor<64x1x1x1xf32>
    %6 = "tosa.const"() <{value = dense<"…"> : tensor<64x1x3x32xi8>}> : () -> tensor<64x1x3x32xi8>
    %7 = "tosa.const"() <{value = dense<[[[[… > : tensor<32x1x1x1xf32>}> : () -> tensor<32x1x1x1xf32>
    %8 = "tosa.const"() <{value = dense<"…"> : tensor<32x1x3x32xi8>}> : () -> tensor<32x1x3x32xi8>
    %9 = "tosa.const"() <{value = dense<[[[[… > : tensor<32x1x1x1xf32>}> : () -> tensor<32x1x1x1xf32>
    %10 = "tosa.const"() <{value = dense<"…"> : tensor<32x1x7x16xi8>}> : () -> tensor<32x1x7x16xi8>
    %11 = "tosa.const"() <{value = dense<0.000000e+00> : tensor<64xf32>}> : () -> tensor<64xf32>
    %12 = "tosa.const"() <{value = dense<0.000000e+00> : tensor<32xf32>}> : () -> tensor<32xf32>
    %13 = "tosa.const"() <{value = dense<0.000000e+00> : tensor<16xf32>}> : () -> tensor<16xf32>
    %14 = "tosa.const"() <{value = dense<"…"> : tensor<16x1x7x1xf32>}> : () -> tensor<16x1x7x1xf32>
    %15 = tosa.reshape %arg0 {new_shape = array<i64: 1, -1, 240, 1>} : (tensor<?x240x1xf32>) -> tensor<1x1x240x1xf32>
    %16 = tosa.conv2d %15, %14, %13 {dilation = array<i64: 1, 1>, pad = array<i64: 0, 0, 2, 3>, stride = array<i64: 1, 2>} : (tensor<1x1x240x1xf32>, tensor<16x1x7x1xf32>, tensor<16xf32>) -> tensor<1x1x120x16xf32>
    %17 = tosa.reshape %16 {new_shape = array<i64: -1, 120, 16>} : (tensor<1x1x120x16xf32>) -> tensor<1x120x16xf32>
    %18 = tosa.mul %17, %0 {shift = 0 : i8} : (tensor<1x120x16xf32>, tensor<1x1x1xf32>) -> tensor<1x120x16xf32>
    %19 = tosa.maximum %18, %17 : (tensor<1x120x16xf32>, tensor<1x120x16xf32>) -> tensor<1x120x16xf32>
    %20 = tosa.reshape %19 {new_shape = array<i64: 1, -1, 120, 16>} : (tensor<1x120x16xf32>) -> tensor<1x1x120x16xf32>
    %21 = tosa.cast %10 : (tensor<32x1x7x16xi8>) -> tensor<32x1x7x16xf32>
    %22 = tosa.mul %21, %9 {shift = 0 : i8} : (tensor<32x1x7x16xf32>, tensor<32x1x1x1xf32>) -> tensor<32x1x7x16xf32>
    %23 = tosa.conv2d %20, %22, %12 {dilation = array<i64: 1, 1>, pad = array<i64: 0, 0, 2, 3>, stride = array<i64: 1, 2>} : (tensor<1x1x120x16xf32>, tensor<32x1x7x16xf32>, tensor<32xf32>) -> tensor<1x1x60x32xf32>
    %24 = tosa.reshape %23 {new_shape = array<i64: -1, 60, 32>} : (tensor<1x1x60x32xf32>) -> tensor<1x60x32xf32>
    %25 = tosa.mul %24, %0 {shift = 0 : i8} : (tensor<1x60x32xf32>, tensor<1x1x1xf32>) -> tensor<1x60x32xf32>
    %26 = tosa.maximum %25, %24 : (tensor<1x60x32xf32>, tensor<1x60x32xf32>) -> tensor<1x60x32xf32>
    %27 = tosa.reshape %26 {new_shape = array<i64: 1, -1, 60, 32>} : (tensor<1x60x32xf32>) -> tensor<1x1x60x32xf32>
    %28 = tosa.cast %8 : (tensor<32x1x3x32xi8>) -> tensor<32x1x3x32xf32>
    %29 = tosa.mul %28, %7 {shift = 0 : i8} : (tensor<32x1x3x32xf32>, tensor<32x1x1x1xf32>) -> tensor<32x1x3x32xf32>
    %30 = tosa.conv2d %27, %29, %12 {dilation = array<i64: 1, 1>, pad = array<i64: 0, 0, 0, 1>, stride = array<i64: 1, 2>} : (tensor<1x1x60x32xf32>, tensor<32x1x3x32xf32>, tensor<32xf32>) -> tensor<1x1x30x32xf32>
    %31 = tosa.reshape %30 {new_shape = array<i64: -1, 30, 32>} : (tensor<1x1x30x32xf32>) -> tensor<1x30x32xf32>
    %32 = tosa.mul %31, %0 {shift = 0 : i8} : (tensor<1x30x32xf32>, tensor<1x1x1xf32>) -> tensor<1x30x32xf32>
    %33 = tosa.maximum %32, %31 : (tensor<1x30x32xf32>, tensor<1x30x32xf32>) -> tensor<1x30x32xf32>
    %34 = tosa.reshape %33 {new_shape = array<i64: 1, -1, 30, 32>} : (tensor<1x30x32xf32>) -> tensor<1x1x30x32xf32>
    %35 = tosa.cast %6 : (tensor<64x1x3x32xi8>) -> tensor<64x1x3x32xf32>
    %36 = tosa.mul %35, %5 {shift = 0 : i8} : (tensor<64x1x3x32xf32>, tensor<64x1x1x1xf32>) -> tensor<64x1x3x32xf32>
    %37 = tosa.conv2d %34, %36, %11 {dilation = array<i64: 1, 1>, pad = array<i64: 0, 0, 0, 1>, stride = array<i64: 1, 2>} : (tensor<1x1x30x32xf32>, tensor<64x1x3x32xf32>, tensor<64xf32>) -> tensor<1x1x15x64xf32>
    %38 = tosa.reshape %37 {new_shape = array<i64: -1, 15, 64>} : (tensor<1x1x15x64xf32>) -> tensor<1x15x64xf32>
    %39 = tosa.mul %38, %0 {shift = 0 : i8} : (tensor<1x15x64xf32>, tensor<1x1x1xf32>) -> tensor<1x15x64xf32>
    %40 = tosa.maximum %39, %38 : (tensor<1x15x64xf32>, tensor<1x15x64xf32>) -> tensor<1x15x64xf32>
    %41 = tosa.reshape %40 {new_shape = array<i64: -1, 960>} : (tensor<1x15x64xf32>) -> tensor<1x960xf32>
    %42 = tosa.cast %4 : (tensor<16x960xi8>) -> tensor<16x960xf32>
    %43 = tosa.mul %42, %3 {shift = 0 : i8} : (tensor<16x960xf32>, tensor<16x1xf32>) -> tensor<16x960xf32>
    %44 = tosa.fully_connected %41, %43, %13 : (tensor<1x960xf32>, tensor<16x960xf32>, tensor<16xf32>) -> tensor<1x16xf32>
    %45 = tosa.cast %2 : (tensor<16x960xi8>) -> tensor<16x960xf32>
    %46 = tosa.mul %45, %1 {shift = 0 : i8} : (tensor<16x960xf32>, tensor<16x1xf32>) -> tensor<16x960xf32>
    %47 = tosa.fully_connected %41, %46, %13 : (tensor<1x960xf32>, tensor<16x960xf32>, tensor<16xf32>) -> tensor<1x16xf32>
    %cast = tensor.cast %44 : tensor<1x16xf32> to tensor<?x16xf32>
    %cast_0 = tensor.cast %47 : tensor<1x16xf32> to tensor<?x16xf32>
    return %cast_0, %cast : tensor<?x16xf32>, tensor<?x16xf32>
  }
}

