module attributes {tf.versions = {bad_consumers = [], min_consumer = 0 : i32, producer = 1882 : i32}} {
  func.func @main(%arg0: tensor<1x240x1xf32>) -> tensor<1x16xf32> attributes {tf.entry_function = {control_outputs = "", inputs = "x1", outputs = "Identity"}} {
    %0 = "tosa.const"() <{value = dense<0.000000e+00> : tensor<1x1x1xf32>}> : () -> tensor<1x1x1xf32>
    %1 = "tosa.const"() <{value = dense<3.000000e-01> : tensor<1x1x1xf32>}> : () -> tensor<1x1x1xf32>
    %2 = "tosa.const"() <{value = dense<"…"> : tensor<1x960x16xf32>}> : () -> tensor<1x960x16xf32>
    %3 = "tosa.const"() <{value = dense<0.000000e+00> : tensor<64xf32>}> : () -> tensor<64xf32>
    %4 = "tosa.const"() <{value = dense<0.000000e+00> : tensor<32xf32>}> : () -> tensor<32xf32>
    %5 = "tosa.const"() <{value = dense<[3, 0, 1, 2]> : tensor<4xi32>}> : () -> tensor<4xi32>
    %6 = "tosa.const"() <{value = dense<0.000000e+00> : tensor<16xf32>}> : () -> tensor<16xf32>
    %7 = "tosa.const"() <{value = dense<"…"> : tensor<1x7x1x16xf32>}> : () -> tensor<1x7x1x16xf32>
    %8 = "tosa.const"() <{value = dense<"…"> : tensor<1x7x16x32xf32>}> : () -> tensor<1x7x16x32xf32>
    %9 = "tosa.const"() <{value = dense<"…"> : tensor<1x3x32x32xf32>}> : () -> tensor<1x3x32x32xf32>
    %10 = "tosa.const"() <{value = dense<"…"> : tensor<1x3x32x64xf32>}> : () -> tensor<1x3x32x64xf32>
    %11 = tosa.reshape %arg0 {new_shape = array<i64: 1, 1, 240, 1>} : (tensor<1x240x1xf32>) -> tensor<1x1x240x1xf32>
    %12 = tosa.transpose %7, %5 : (tensor<1x7x1x16xf32>, tensor<4xi32>) -> tensor<16x1x7x1xf32>
    %13 = tosa.conv2d %11, %12, %6 {dilation = array<i64: 1, 1>, pad = array<i64: 0, 0, 2, 3>, stride = array<i64: 1, 2>} : (tensor<1x1x240x1xf32>, tensor<16x1x7x1xf32>, tensor<16xf32>) -> tensor<1x1x120x16xf32>
    %14 = tosa.reshape %13 {new_shape = array<i64: 1, 120, 16>} : (tensor<1x1x120x16xf32>) -> tensor<1x120x16xf32>
    %15 = tosa.mul %14, %1 {shift = 0 : i8} : (tensor<1x120x16xf32>, tensor<1x1x1xf32>) -> tensor<1x120x16xf32>
    %16 = tosa.greater_equal %14, %0 : (tensor<1x120x16xf32>, tensor<1x1x1xf32>) -> tensor<1x120x16xi1>
    %17 = tosa.select %16, %14, %15 : (tensor<1x120x16xi1>, tensor<1x120x16xf32>, tensor<1x120x16xf32>) -> tensor<1x120x16xf32>
    %18 = tosa.reshape %17 {new_shape = array<i64: 1, 1, 120, 16>} : (tensor<1x120x16xf32>) -> tensor<1x1x120x16xf32>
    %19 = tosa.transpose %8, %5 : (tensor<1x7x16x32xf32>, tensor<4xi32>) -> tensor<32x1x7x16xf32>
    %20 = tosa.conv2d %18, %19, %4 {dilation = array<i64: 1, 1>, pad = array<i64: 0, 0, 2, 3>, stride = array<i64: 1, 2>} : (tensor<1x1x120x16xf32>, tensor<32x1x7x16xf32>, tensor<32xf32>) -> tensor<1x1x60x32xf32>
    %21 = tosa.reshape %20 {new_shape = array<i64: 1, 60, 32>} : (tensor<1x1x60x32xf32>) -> tensor<1x60x32xf32>
    %22 = tosa.mul %21, %1 {shift = 0 : i8} : (tensor<1x60x32xf32>, tensor<1x1x1xf32>) -> tensor<1x60x32xf32>
    %23 = tosa.greater_equal %21, %0 : (tensor<1x60x32xf32>, tensor<1x1x1xf32>) -> tensor<1x60x32xi1>
    %24 = tosa.select %23, %21, %22 : (tensor<1x60x32xi1>, tensor<1x60x32xf32>, tensor<1x60x32xf32>) -> tensor<1x60x32xf32>
    %25 = tosa.reshape %24 {new_shape = array<i64: 1, 1, 60, 32>} : (tensor<1x60x32xf32>) -> tensor<1x1x60x32xf32>
    %26 = tosa.transpose %9, %5 : (tensor<1x3x32x32xf32>, tensor<4xi32>) -> tensor<32x1x3x32xf32>
    %27 = tosa.conv2d %25, %26, %4 {dilation = array<i64: 1, 1>, pad = array<i64: 0, 0, 0, 1>, stride = array<i64: 1, 2>} : (tensor<1x1x60x32xf32>, tensor<32x1x3x32xf32>, tensor<32xf32>) -> tensor<1x1x30x32xf32>
    %28 = tosa.reshape %27 {new_shape = array<i64: 1, 30, 32>} : (tensor<1x1x30x32xf32>) -> tensor<1x30x32xf32>
    %29 = tosa.mul %28, %1 {shift = 0 : i8} : (tensor<1x30x32xf32>, tensor<1x1x1xf32>) -> tensor<1x30x32xf32>
    %30 = tosa.greater_equal %28, %0 : (tensor<1x30x32xf32>, tensor<1x1x1xf32>) -> tensor<1x30x32xi1>
    %31 = tosa.select %30, %28, %29 : (tensor<1x30x32xi1>, tensor<1x30x32xf32>, tensor<1x30x32xf32>) -> tensor<1x30x32xf32>
    %32 = tosa.reshape %31 {new_shape = array<i64: 1, 1, 30, 32>} : (tensor<1x30x32xf32>) -> tensor<1x1x30x32xf32>
    %33 = tosa.transpose %10, %5 : (tensor<1x3x32x64xf32>, tensor<4xi32>) -> tensor<64x1x3x32xf32>
    %34 = tosa.conv2d %32, %33, %3 {dilation = array<i64: 1, 1>, pad = array<i64: 0, 0, 0, 1>, stride = array<i64: 1, 2>} : (tensor<1x1x30x32xf32>, tensor<64x1x3x32xf32>, tensor<64xf32>) -> tensor<1x1x15x64xf32>
    %35 = tosa.reshape %34 {new_shape = array<i64: 1, 15, 64>} : (tensor<1x1x15x64xf32>) -> tensor<1x15x64xf32>
    %36 = tosa.mul %35, %1 {shift = 0 : i8} : (tensor<1x15x64xf32>, tensor<1x1x1xf32>) -> tensor<1x15x64xf32>
    %37 = tosa.greater_equal %35, %0 : (tensor<1x15x64xf32>, tensor<1x1x1xf32>) -> tensor<1x15x64xi1>
    %38 = tosa.select %37, %35, %36 : (tensor<1x15x64xi1>, tensor<1x15x64xf32>, tensor<1x15x64xf32>) -> tensor<1x15x64xf32>
    %39 = tosa.reshape %38 {new_shape = array<i64: 1, 1, 960>} : (tensor<1x15x64xf32>) -> tensor<1x1x960xf32>
    %40 = tosa.matmul %39, %2 : (tensor<1x1x960xf32>, tensor<1x960x16xf32>) -> tensor<1x1x16xf32>
    %41 = tosa.reshape %40 {new_shape = array<i64: 1, 16>} : (tensor<1x1x16xf32>) -> tensor<1x16xf32>
    return %41 : tensor<1x16xf32>
  }
}

