module attributes {tf.versions = {bad_consumers = [], min_consumer = 0 : i32, producer = 1882 : i32}} {
  func.func @main(%arg0: tensor<1x240x1xf32>) -> tensor<*xf32> attributes {tf.entry_function = {control_outputs = "", inputs = "x1", outputs = "Identity"}} {
    %0 = tf_executor.graph {
      %outputs, %control = tf_executor.island wraps "tf.Const"() <{value = dense<0.000000e+00> : tensor<16xf32>}> {device = ""} : () -> tensor<16xf32>
      %outputs_0, %control_1 = tf_executor.island wraps "tf.Identity"(%outputs) {_has_manual_control_dependencies = true, device = ""} : (tensor<16xf32>) -> tensor<*xf32>
      %outputs_2, %control_3 = tf_executor.island wraps "tf.Const"() <{value = dense<[1, 1, 16]> : tensor<3xi32>}> {device = ""} : () -> tensor<3xi32>
      %outputs_4, %control_5 = tf_executor.island wraps "tf.Reshape"(%outputs_0, %outputs_2) {device = ""} : (tensor<*xf32>, tensor<3xi32>) -> tensor<*xf32>
      %outputs_6, %control_7 = tf_executor.island wraps "tf.Squeeze"(%outputs_4) <{squeeze_dims = []}> {device = ""} : (tensor<*xf32>) -> tensor<*xf32>
      %outputs_8, %control_9 = tf_executor.island wraps "tf.Const"() <{value = dense<-3> : tensor<i32>}> {device = ""} : () -> tensor<i32>
      %outputs_10, %control_11 = tf_executor.island wraps "tf.Const"() <{value = dense<"…"> : tensor<7x1x16xf32>}> {device = ""} : () -> tensor<7x1x16xf32>
      %outputs_12, %control_13 = tf_executor.island wraps "tf.Identity"(%outputs_10) {_has_manual_control_dependencies = true, device = ""} : (tensor<7x1x16xf32>) -> tensor<*xf32>
      %outputs_14, %control_15 = tf_executor.island wraps "tf.Const"() <{value = dense<0> : tensor<i32>}> {device = ""} : () -> tensor<i32>
      %outputs_16, %control_17 = tf_executor.island wraps "tf.ExpandDims"(%outputs_12, %outputs_14) {device = ""} : (tensor<*xf32>, tensor<i32>) -> tensor<*xf32>
      %outputs_18, %control_19 = tf_executor.island wraps "tf.Const"() <{value = dense<0.000000e+00> : tensor<32xf32>}> {device = ""} : () -> tensor<32xf32>
      %outputs_20, %control_21 = tf_executor.island wraps "tf.Identity"(%outputs_18) {_has_manual_control_dependencies = true, device = ""} : (tensor<32xf32>) -> tensor<*xf32>
      %outputs_22, %control_23 = tf_executor.island wraps "tf.Const"() <{value = dense<[1, 1, 32]> : tensor<3xi32>}> {device = ""} : () -> tensor<3xi32>
      %outputs_24, %control_25 = tf_executor.island wraps "tf.Reshape"(%outputs_20, %outputs_22) {device = ""} : (tensor<*xf32>, tensor<3xi32>) -> tensor<*xf32>
      %outputs_26, %control_27 = tf_executor.island wraps "tf.Squeeze"(%outputs_24) <{squeeze_dims = []}> {device = ""} : (tensor<*xf32>) -> tensor<*xf32>
      %outputs_28, %control_29 = tf_executor.island wraps "tf.Const"() <{value = dense<-3> : tensor<i32>}> {device = ""} : () -> tensor<i32>
      %outputs_30, %control_31 = tf_executor.island wraps "tf.Const"() <{value = dense<"…"> : tensor<7x16x32xf32>}> {device = ""} : () -> tensor<7x16x32xf32>
      %outputs_32, %control_33 = tf_executor.island wraps "tf.Identity"(%outputs_30) {_has_manual_control_dependencies = true, device = ""} : (tensor<7x16x32xf32>) -> tensor<*xf32>
      %outputs_34, %control_35 = tf_executor.island wraps "tf.Const"() <{value = dense<0> : tensor<i32>}> {device = ""} : () -> tensor<i32>
      %outputs_36, %control_37 = tf_executor.island wraps "tf.ExpandDims"(%outputs_32, %outputs_34) {device = ""} : (tensor<*xf32>, tensor<i32>) -> tensor<*xf32>
      %outputs_38, %control_39 = tf_executor.island wraps "tf.Const"() <{value = dense<0.000000e+00> : tensor<32xf32>}> {device = ""} : () -> tensor<32xf32>
      %outputs_40, %control_41 = tf_executor.island wraps "tf.Identity"(%outputs_38) {_has_manual_control_dependencies = true, device = ""} : (tensor<32xf32>) -> tensor<*xf32>
      %outputs_42, %control_43 = tf_executor.island wraps "tf.Const"() <{value = dense<[1, 1, 32]> : tensor<3xi32>}> {device = ""} : () -> tensor<3xi32>
      %outputs_44, %control_45 = tf_executor.island wraps "tf.Reshape"(%outputs_40, %outputs_42) {device = ""} : (tensor<*xf32>, tensor<3xi32>) -> tensor<*xf32>
      %outputs_46, %control_47 = tf_executor.island wraps "tf.Squeeze"(%outputs_44) <{squeeze_dims = []}> {device = ""} : (tensor<*xf32>) -> tensor<*xf32>
      %outputs_48, %control_49 = tf_executor.island wraps "tf.Const"() <{value = dense<-3> : tensor<i32>}> {device = ""} : () -> tensor<i32>
      %outputs_50, %control_51 = tf_executor.island wraps "tf.Const"() <{value = dense<"…"> : tensor<3x32x32xf32>}> {device = ""} : () -> tensor<3x32x32xf32>
      %outputs_52, %control_53 = tf_executor.island wraps "tf.Identity"(%outputs_50) {_has_manual_control_dependencies = true, device = ""} : (tensor<3x32x32xf32>) -> tensor<*xf32>
      %outputs_54, %control_55 = tf_executor.island wraps "tf.Const"() <{value = dense<0> : tensor<i32>}> {device = ""} : () -> tensor<i32>
      %outputs_56, %control_57 = tf_executor.island wraps "tf.ExpandDims"(%outputs_52, %outputs_54) {device = ""} : (tensor<*xf32>, tensor<i32>) -> tensor<*xf32>
      %outputs_58, %control_59 = tf_executor.island wraps "tf.Const"() <{value = dense<0.000000e+00> : tensor<64xf32>}> {device = ""} : () -> tensor<64xf32>
      %outputs_60, %control_61 = tf_executor.island wraps "tf.Identity"(%outputs_58) {_has_manual_control_dependencies = true, device = ""} : (tensor<64xf32>) -> tensor<*xf32>
      %outputs_62, %control_63 = tf_executor.island wraps "tf.Const"() <{value = dense<[1, 1, 64]> : tensor<3xi32>}> {device = ""} : () -> tensor<3xi32>
      %outputs_64, %control_65 = tf_executor.island wraps "tf.Reshape"(%outputs_60, %outputs_62) {device = ""} : (tensor<*xf32>, tensor<3xi32>) -> tensor<*xf32>
      %outputs_66, %control_67 = tf_executor.island wraps "tf.Squeeze"(%outputs_64) <{squeeze_dims = []}> {device = ""} : (tensor<*xf32>) -> tensor<*xf32>
      %outputs_68, %control_69 = tf_executor.island wraps "tf.Const"() <{value = dense<-3> : tensor<i32>}> {device = ""} : () -> tensor<i32>
      %outputs_70, %control_71 = tf_executor.island wraps "tf.Const"() <{value = dense<"…"> : tensor<3x32x64xf32>}> {device = ""} : () -> tensor<3x32x64xf32>
      %outputs_72, %control_73 = tf_executor.island wraps "tf.Identity"(%outputs_70) {_has_manual_control_dependencies = true, device = ""} : (tensor<3x32x64xf32>) -> tensor<*xf32>
      %outputs_74, %control_75 = tf_executor.island wraps "tf.Const"() <{value = dense<0> : tensor<i32>}> {device = ""} : () -> tensor<i32>
      %outputs_76, %control_77 = tf_executor.island wraps "tf.ExpandDims"(%outputs_72, %outputs_74) {device = ""} : (tensor<*xf32>, tensor<i32>) -> tensor<*xf32>
      %outputs_78, %control_79 = tf_executor.island wraps "tf.Const"() <{value = dense<[-1, 960]> : tensor<2xi32>}> {device = ""} : () -> tensor<2xi32>
      %outputs_80, %control_81 = tf_executor.island wraps "tf.Const"() <{value = dense<0.000000e+00> : tensor<16xf32>}> {device = ""} : () -> tensor<16xf32>
      %outputs_82, %control_83 = tf_executor.island wraps "tf.Identity"(%outputs_80) {_has_manual_control_dependencies = true, device = ""} : (tensor<16xf32>) -> tensor<*xf32>
      %outputs_84, %control_85 = tf_executor.island wraps "tf.Const"() <{value = dense<"…"> : tensor<960x16xf32>}> {device = ""} : () -> tensor<960x16xf32>
      %outputs_86, %control_87 = tf_executor.island wraps "tf.Identity"(%outputs_84) {_has_manual_control_dependencies = true, device = ""} : (tensor<960x16xf32>) -> tensor<*xf32>
      %outputs_88, %control_89 = tf_executor.island wraps "tf.Const"() <{value = dense<0.000000e+00> : tensor<16xf32>}> {device = ""} : () -> tensor<16xf32>
      %outputs_90, %control_91 = tf_executor.island wraps "tf.Identity"(%outputs_88) {_has_manual_control_dependencies = true, device = ""} : (tensor<16xf32>) -> tensor<*xf32>
      %outputs_92, %control_93 = tf_executor.island wraps "tf.Const"() <{value = dense<"…"> : tensor<960x16xf32>}> {device = ""} : () -> tensor<960x16xf32>
      %outputs_94, %control_95 = tf_executor.island wraps "tf.Identity"(%outputs_92) {_has_manual_control_dependencies = true, device = ""} : (tensor<960x16xf32>) -> tensor<*xf32>
      %control_96 = tf_executor.island(%control_13, %control_1, %control_33, %control_21, %control_53, %control_41, %control_73, %control_61, %control_95, %control_91, %control_87, %control_83) wraps "tf.NoOp"() {_has_manual_control_dependencies = true, device = ""} : () -> ()
      %outputs_97, %control_98 = tf_executor.island wraps "tf.ExpandDims"(%arg0, %outputs_8) {device = ""} : (tensor<1x240x1xf32>, tensor<i32>) -> tensor<*xf32>
      %outputs_99, %control_100 = tf_executor.island wraps "tf.Conv2D"(%outputs_97, %outputs_16) <{data_format = "NHWC", dilations = [1, 1, 1, 1], explicit_paddings = [], padding = "SAME", strides = [1, 1, 2, 1], use_cudnn_on_gpu = true}> {device = ""} : (tensor<*xf32>, tensor<*xf32>) -> tensor<*xf32>
      %outputs_101, %control_102 = tf_executor.island wraps "tf.Squeeze"(%outputs_99) <{squeeze_dims = [-3]}> {device = ""} : (tensor<*xf32>) -> tensor<*xf32>
      %outputs_103, %control_104 = tf_executor.island wraps "tf.BiasAdd"(%outputs_101, %outputs_6) <{data_format = "NHWC"}> {device = ""} : (tensor<*xf32>, tensor<*xf32>) -> tensor<*xf32>
      %outputs_105, %control_106 = tf_executor.island wraps "tf.LeakyRelu"(%outputs_103) <{alpha = 3.000000e-01 : f32}> {device = ""} : (tensor<*xf32>) -> tensor<*xf32>
      %outputs_107, %control_108 = tf_executor.island wraps "tf.ExpandDims"(%outputs_105, %outputs_28) {device = ""} : (tensor<*xf32>, tensor<i32>) -> tensor<*xf32>
      %outputs_109, %control_110 = tf_executor.island wraps "tf.Conv2D"(%outputs_107, %outputs_36) <{data_format = "NHWC", dilations = [1, 1, 1, 1], explicit_paddings = [], padding = "SAME", strides = [1, 1, 2, 1], use_cudnn_on_gpu = true}> {device = ""} : (tensor<*xf32>, tensor<*xf32>) -> tensor<*xf32>
      %outputs_111, %control_112 = tf_executor.island wraps "tf.Squeeze"(%outputs_109) <{squeeze_dims = [-3]}> {device = ""} : (tensor<*xf32>) -> tensor<*xf32>
      %outputs_113, %control_114 = tf_executor.island wraps "tf.BiasAdd"(%outputs_111, %outputs_26) <{data_format = "NHWC"}> {device = ""} : (tensor<*xf32>, tensor<*xf32>) -> tensor<*xf32>
      %outputs_115, %control_116 = tf_executor.island wraps "tf.LeakyRelu"(%outputs_113) <{alpha = 3.000000e-01 : f32}> {device = ""} : (tensor<*xf32>) -> tensor<*xf32>
      %outputs_117, %control_118 = tf_executor.island wraps "tf.ExpandDims"(%outputs_115, %outputs_48) {device = ""} : (tensor<*xf32>, tensor<i32>) -> tensor<*xf32>
      %outputs_119, %control_120 = tf_executor.island wraps "tf.Conv2D"(%outputs_117, %outputs_56) <{data_format = "NHWC", dilations = [1, 1, 1, 1], explicit_paddings = [], padding = "SAME", strides = [1, 1, 2, 1], use_cudnn_on_gpu = true}> {device = ""} : (tensor<*xf32>, tensor<*xf32>) -> tensor<*xf32>
      %outputs_121, %control_122 = tf_executor.island wraps "tf.Squeeze"(%outputs_119) <{squeeze_dims = [-3]}> {device = ""} : (tensor<*xf32>) -> tensor<*xf32>
      %outputs_123, %control_124 = tf_executor.island wraps "tf.BiasAdd"(%outputs_121, %outputs_46) <{data_format = "NHWC"}> {device = ""} : (tensor<*xf32>, tensor<*xf32>) -> tensor<*xf32>
      %outputs_125, %control_126 = tf_executor.island wraps "tf.LeakyRelu"(%outputs_123) <{alpha = 3.000000e-01 : f32}> {device = ""} : (tensor<*xf32>) -> tensor<*xf32>
      %outputs_127, %control_128 = tf_executor.island wraps "tf.ExpandDims"(%outputs_125, %outputs_68) {device = ""} : (tensor<*xf32>, tensor<i32>) -> tensor<*xf32>
      %outputs_129, %control_130 = tf_executor.island wraps "tf.Conv2D"(%outputs_127, %outputs_76) <{data_format = "NHWC", dilations = [1, 1, 1, 1], explicit_paddings = [], padding = "SAME", strides = [1, 1, 2, 1], use_cudnn_on_gpu = true}> {device = ""} : (tensor<*xf32>, tensor<*xf32>) -> tensor<*xf32>
      %outputs_131, %control_132 = tf_executor.island wraps "tf.Squeeze"(%outputs_129) <{squeeze_dims = [-3]}> {device = ""} : (tensor<*xf32>) -> tensor<*xf32>
      %outputs_133, %control_134 = tf_executor.island wraps "tf.BiasAdd"(%outputs_131, %outputs_66) <{data_format = "NHWC"}> {device = ""} : (tensor<*xf32>, tensor<*xf32>) -> tensor<*xf32>
      %outputs_135, %control_136 = tf_executor.island wraps "tf.LeakyRelu"(%outputs_133) <{alpha = 3.000000e-01 : f32}> {device = ""} : (tensor<*xf32>) -> tensor<*xf32>
      %outputs_137, %control_138 = tf_executor.island wraps "tf.Reshape"(%outputs_135, %outputs_78) {device = ""} : (tensor<*xf32>, tensor<2xi32>) -> tensor<*xf32>
      %outputs_139, %control_140 = tf_executor.island wraps "tf.MatMul"(%outputs_137, %outputs_86) <{grad_a = false, grad_b = false, transpose_a = false, transpose_b = false}> {device = ""} : (tensor<*xf32>, tensor<*xf32>) -> tensor<*xf32>
      %outputs_141, %control_142 = tf_executor.island wraps "tf.BiasAdd"(%outputs_139, %outputs_82) <{data_format = "NHWC"}> {device = ""} : (tensor<*xf32>, tensor<*xf32>) -> tensor<*xf32>
      %outputs_143, %control_144 = tf_executor.island(%control_96) wraps "tf.Identity"(%outputs_141) {device = ""} : (tensor<*xf32>) -> tensor<*xf32>
      %outputs_145, %control_146 = tf_executor.island wraps "tf.MatMul"(%outputs_137, %outputs_94) <{grad_a = false, grad_b = false, transpose_a = false, transpose_b = false}> {device = ""} : (tensor<*xf32>, tensor<*xf32>) -> tensor<*xf32>
      %outputs_147, %control_148 = tf_executor.island wraps "tf.BiasAdd"(%outputs_145, %outputs_90) <{data_format = "NHWC"}> {device = ""} : (tensor<*xf32>, tensor<*xf32>) -> tensor<*xf32>
      %outputs_149, %control_150 = tf_executor.island(%control_96) wraps "tf.Identity"(%outputs_147) {device = ""} : (tensor<*xf32>) -> tensor<*xf32>
      tf_executor.fetch %outputs_149 : tensor<*xf32>
    }
    return %0 : tensor<*xf32>
  }
}
