module attributes {tf.versions = {bad_consumers = [], min_consumer = 0 : i32, producer = 1882 : i32}} {
  func.func @main(%arg0: tensor<1x240x1xf32>) -> (tensor<*xf32>, tensor<*xf32>) attributes {tf.entry_function = {control_outputs = "", inputs = "x1", outputs = "Identity,Identity_1"}} {
    %0:2 = tf_executor.graph {
      %outputs, %control = tf_executor.island wraps "tf.Const"() <{value = dense<"…"> : tensor<7x1x16xf32>}> {device = ""} : () -> tensor<7x1x16xf32>
      %outputs_0, %control_1 = tf_executor.island wraps "tf.Identity"(%outputs) {_has_manual_control_dependencies = true, device = ""} : (tensor<7x1x16xf32>) -> tensor<*xf32>
      %outputs_2, %control_3 = tf_executor.island wraps "tf.Const"() <{value = dense<0.000000e+00> : tensor<16xf32>}> {device = ""} : () -> tensor<16xf32>
      %outputs_4, %control_5 = tf_executor.island wraps "tf.Identity"(%outputs_2) {_has_manual_control_dependencies = true, device = ""} : (tensor<16xf32>) -> tensor<*xf32>
      %outputs_6, %control_7 = tf_executor.island wraps "tf.Const"() <{value = dense<"…"> : tensor<7x16x32xf32>}> {device = ""} : () -> tensor<7x16x32xf32>
      %outputs_8, %control_9 = tf_executor.island wraps "tf.Identity"(%outputs_6) {_has_manual_control_dependencies = true, device = ""} : (tensor<7x16x32xf32>) -> tensor<*xf32>
      %outputs_10, %control_11 = tf_executor.island wraps "tf.Const"() <{value = dense<0.000000e+00> : tensor<16xf32>}> {device = ""} : () -> tensor<16xf32>
      %outputs_12, %control_13 = tf_executor.island wraps "tf.Identity"(%outputs_10) {_has_manual_control_dependencies = true, device = ""} : (tensor<16xf32>) -> tensor<*xf32>
      %outputs_14, %control_15 = tf_executor.island wraps "tf.Const"() <{value = dense<0.000000e+00> : tensor<32xf32>}> {device = ""} : () -> tensor<32xf32>
      %outputs_16, %control_17 = tf_executor.island wraps "tf.Identity"(%outputs_14) {_has_manual_control_dependencies = true, device = ""} : (tensor<32xf32>) -> tensor<*xf32>
      %outputs_18, %control_19 = tf_executor.island wraps "tf.Const"() <{value = dense<"…"> : tensor<3x32x32xf32>}> {device = ""} : () -> tensor<3x32x32xf32>
      %outputs_20, %control_21 = tf_executor.island wraps "tf.Identity"(%outputs_18) {_has_manual_control_dependencies = true, device = ""} : (tensor<3x32x32xf32>) -> tensor<*xf32>
      %outputs_22, %control_23 = tf_executor.island wraps "tf.Const"() <{value = dense<0.000000e+00> : tensor<32xf32>}> {device = ""} : () -> tensor<32xf32>
      %outputs_24, %control_25 = tf_executor.island wraps "tf.Identity"(%outputs_22) {_has_manual_control_dependencies = true, device = ""} : (tensor<32xf32>) -> tensor<*xf32>
      %outputs_26, %control_27 = tf_executor.island wraps "tf.Const"() <{value = dense<"…"> : tensor<3x32x64xf32>}> {device = ""} : () -> tensor<3x32x64xf32>
      %outputs_28, %control_29 = tf_executor.island wraps "tf.Identity"(%outputs_26) {_has_manual_control_dependencies = true, device = ""} : (tensor<3x32x64xf32>) -> tensor<*xf32>
      %outputs_30, %control_31 = tf_executor.island wraps "tf.Const"() <{value = dense<0.000000e+00> : tensor<64xf32>}> {device = ""} : () -> tensor<64xf32>
      %outputs_32, %control_33 = tf_executor.island wraps "tf.Identity"(%outputs_30) {_has_manual_control_dependencies = true, device = ""} : (tensor<64xf32>) -> tensor<*xf32>
      %outputs_34, %control_35 = tf_executor.island wraps "tf.Const"() <{value = dense<"…"> : tensor<960x16xf32>}> {device = ""} : () -> tensor<960x16xf32>
      %outputs_36, %control_37 = tf_executor.island wraps "tf.Identity"(%outputs_34) {_has_manual_control_dependencies = true, device = ""} : (tensor<960x16xf32>) -> tensor<*xf32>
      %outputs_38, %control_39 = tf_executor.island wraps "tf.Const"() <{value = dense<0.000000e+00> : tensor<16xf32>}> {device = ""} : () -> tensor<16xf32>
      %outputs_40, %control_41 = tf_executor.island wraps "tf.Identity"(%outputs_38) {_has_manual_control_dependencies = true, device = ""} : (tensor<16xf32>) -> tensor<*xf32>
      %outputs_42, %control_43 = tf_executor.island wraps "tf.Const"() <{value = dense<"…"> : tensor<960x16xf32>}> {device = ""} : () -> tensor<960x16xf32>
      %outputs_44, %control_45 = tf_executor.island wraps "tf.Identity"(%outputs_42) {_has_manual_control_dependencies = true, device = ""} : (tensor<960x16xf32>) -> tensor<*xf32>
      %outputs_46, %control_47 = tf_executor.island wraps "tf.Identity"(%arg0) {device = ""} : (tensor<1x240x1xf32>) -> tensor<*xf32>
      %outputs_48, %control_49 = tf_executor.island wraps "tf.Cast"(%outputs_46) <{Truncate = false}> {device = ""} : (tensor<*xf32>) -> tensor<*xf16>
      %outputs_50, %control_51 = tf_executor.island wraps "tf.Cast"(%outputs_48) <{Truncate = false}> {_has_manual_control_dependencies = true, device = ""} : (tensor<*xf16>) -> tensor<*xf32>
      %control_52 = tf_executor.island(%control_1, %control_25, %control_41, %control_29, %control_5, %control_33, %control_45, %control_17, %control_13, %control_51, %control_9, %control_21, %control_37) wraps "tf.NoOp"() {_has_manual_control_dependencies = true, device = ""} : () -> ()
      %control_53 = tf_executor.island(%control_52) wraps "tf.NoOp"() {_has_manual_control_dependencies = true, device = ""} : () -> ()
      %outputs_54, %control_55 = tf_executor.island(%control_53) wraps "tf.Const"() <{value = dense<[1, 1, 16]> : tensor<3xi32>}> {device = ""} : () -> tensor<3xi32>
      %outputs_56, %control_57 = tf_executor.island(%control_53) wraps "tf.Const"() <{value = dense<-3> : tensor<i32>}> {device = ""} : () -> tensor<i32>
      %outputs_58, %control_59 = tf_executor.island(%control_53) wraps "tf.Const"() <{value = dense<0> : tensor<i32>}> {device = ""} : () -> tensor<i32>
      %outputs_60, %control_61 = tf_executor.island(%control_53) wraps "tf.Const"() <{value = dense<[1, 1, 32]> : tensor<3xi32>}> {device = ""} : () -> tensor<3xi32>
      %outputs_62, %control_63 = tf_executor.island(%control_53) wraps "tf.Const"() <{value = dense<-3> : tensor<i32>}> {device = ""} : () -> tensor<i32>
      %outputs_64, %control_65 = tf_executor.island(%control_53) wraps "tf.Const"() <{value = dense<0> : tensor<i32>}> {device = ""} : () -> tensor<i32>
      %outputs_66, %control_67 = tf_executor.island(%control_53) wraps "tf.Const"() <{value = dense<[1, 1, 32]> : tensor<3xi32>}> {device = ""} : () -> tensor<3xi32>
      %outputs_68, %control_69 = tf_executor.island(%control_53) wraps "tf.Const"() <{value = dense<-3> : tensor<i32>}> {device = ""} : () -> tensor<i32>
      %outputs_70, %control_71 = tf_executor.island(%control_53) wraps "tf.Const"() <{value = dense<0> : tensor<i32>}> {device = ""} : () -> tensor<i32>
      %outputs_72, %control_73 = tf_executor.island(%control_53) wraps "tf.Const"() <{value = dense<[1, 1, 64]> : tensor<3xi32>}> {device = ""} : () -> tensor<3xi32>
      %outputs_74, %control_75 = tf_executor.island(%control_53) wraps "tf.Const"() <{value = dense<-3> : tensor<i32>}> {device = ""} : () -> tensor<i32>
      %outputs_76, %control_77 = tf_executor.island(%control_53) wraps "tf.Const"() <{value = dense<0> : tensor<i32>}> {device = ""} : () -> tensor<i32>
      %outputs_78, %control_79 = tf_executor.island(%control_53) wraps "tf.Const"() <{value = dense<[-1, 960]> : tensor<2xi32>}> {device = ""} : () -> tensor<2xi32>
      %outputs_80, %control_81 = tf_executor.island(%control_52) wraps "tf.Identity"(%outputs_50) {device = ""} : (tensor<*xf32>) -> tensor<*xf32>
      %outputs_82, %control_83 = tf_executor.island(%control_53) wraps "tf.Identity"(%outputs_80) {device = ""} : (tensor<*xf32>) -> tensor<*xf32>
      %outputs_84, %control_85 = tf_executor.island wraps "tf.ExpandDims"(%outputs_82, %outputs_56) {device = ""} : (tensor<*xf32>, tensor<i32>) -> tensor<*xf32>
      %outputs_86, %control_87 = tf_executor.island(%control_52) wraps "tf.Identity"(%outputs_0) {device = ""} : (tensor<*xf32>) -> tensor<*xf32>
      %outputs_88, %control_89 = tf_executor.island(%control_53) wraps "tf.Identity"(%outputs_86) {device = ""} : (tensor<*xf32>) -> tensor<*xf32>
      %outputs_90, %control_91 = tf_executor.island wraps "tf.Identity"(%outputs_88) {_has_manual_control_dependencies = true, device = ""} : (tensor<*xf32>) -> tensor<*xf32>
      %outputs_92, %control_93 = tf_executor.island wraps "tf.ExpandDims"(%outputs_90, %outputs_58) {device = ""} : (tensor<*xf32>, tensor<i32>) -> tensor<*xf32>
      %outputs_94, %control_95 = tf_executor.island wraps "tf.Conv2D"(%outputs_84, %outputs_92) <{data_format = "NHWC", dilations = [1, 1, 1, 1], explicit_paddings = [], padding = "SAME", strides = [1, 1, 2, 1], use_cudnn_on_gpu = true}> {device = ""} : (tensor<*xf32>, tensor<*xf32>) -> tensor<*xf32>
      %outputs_96, %control_97 = tf_executor.island wraps "tf.Squeeze"(%outputs_94) <{squeeze_dims = [-3]}> {device = ""} : (tensor<*xf32>) -> tensor<*xf32>
      %outputs_98, %control_99 = tf_executor.island(%control_52) wraps "tf.Identity"(%outputs_4) {device = ""} : (tensor<*xf32>) -> tensor<*xf32>
      %outputs_100, %control_101 = tf_executor.island(%control_53) wraps "tf.Identity"(%outputs_98) {device = ""} : (tensor<*xf32>) -> tensor<*xf32>
      %outputs_102, %control_103 = tf_executor.island wraps "tf.Identity"(%outputs_100) {_has_manual_control_dependencies = true, device = ""} : (tensor<*xf32>) -> tensor<*xf32>
      %outputs_104, %control_105 = tf_executor.island wraps "tf.Reshape"(%outputs_102, %outputs_54) {device = ""} : (tensor<*xf32>, tensor<3xi32>) -> tensor<*xf32>
      %outputs_106, %control_107 = tf_executor.island wraps "tf.Squeeze"(%outputs_104) <{squeeze_dims = []}> {device = ""} : (tensor<*xf32>) -> tensor<*xf32>
      %outputs_108, %control_109 = tf_executor.island wraps "tf.BiasAdd"(%outputs_96, %outputs_106) <{data_format = "NHWC"}> {device = ""} : (tensor<*xf32>, tensor<*xf32>) -> tensor<*xf32>
      %outputs_110, %control_111 = tf_executor.island wraps "tf.LeakyRelu"(%outputs_108) <{alpha = 3.000000e-01 : f32}> {device = ""} : (tensor<*xf32>) -> tensor<*xf32>
      %outputs_112, %control_113 = tf_executor.island wraps "tf.ExpandDims"(%outputs_110, %outputs_62) {device = ""} : (tensor<*xf32>, tensor<i32>) -> tensor<*xf32>
      %outputs_114, %control_115 = tf_executor.island(%control_52) wraps "tf.Identity"(%outputs_8) {device = ""} : (tensor<*xf32>) -> tensor<*xf32>
      %outputs_116, %control_117 = tf_executor.island(%control_53) wraps "tf.Identity"(%outputs_114) {device = ""} : (tensor<*xf32>) -> tensor<*xf32>
      %outputs_118, %control_119 = tf_executor.island wraps "tf.Identity"(%outputs_116) {_has_manual_control_dependencies = true, device = ""} : (tensor<*xf32>) -> tensor<*xf32>
      %outputs_120, %control_121 = tf_executor.island wraps "tf.ExpandDims"(%outputs_118, %outputs_64) {device = ""} : (tensor<*xf32>, tensor<i32>) -> tensor<*xf32>
      %outputs_122, %control_123 = tf_executor.island wraps "tf.Conv2D"(%outputs_112, %outputs_120) <{data_format = "NHWC", dilations = [1, 1, 1, 1], explicit_paddings = [], padding = "SAME", strides = [1, 1, 2, 1], use_cudnn_on_gpu = true}> {device = ""} : (tensor<*xf32>, tensor<*xf32>) -> tensor<*xf32>
      %outputs_124, %control_125 = tf_executor.island wraps "tf.Squeeze"(%outputs_122) <{squeeze_dims = [-3]}> {device = ""} : (tensor<*xf32>) -> tensor<*xf32>
      %outputs_126, %control_127 = tf_executor.island(%control_52) wraps "tf.Identity"(%outputs_16) {device = ""} : (tensor<*xf32>) -> tensor<*xf32>
      %outputs_128, %control_129 = tf_executor.island(%control_53) wraps "tf.Identity"(%outputs_126) {device = ""} : (tensor<*xf32>) -> tensor<*xf32>
      %outputs_130, %control_131 = tf_executor.island wraps "tf.Identity"(%outputs_128) {_has_manual_control_dependencies = true, device = ""} : (tensor<*xf32>) -> tensor<*xf32>
      %outputs_132, %control_133 = tf_executor.island wraps "tf.Reshape"(%outputs_130, %outputs_60) {device = ""} : (tensor<*xf32>, tensor<3xi32>) -> tensor<*xf32>
      %outputs_134, %control_135 = tf_executor.island wraps "tf.Squeeze"(%outputs_132) <{squeeze_dims = []}> {device = ""} : (tensor<*xf32>) -> tensor<*xf32>
      %outputs_136, %control_137 = tf_executor.island wraps "tf.BiasAdd"(%outputs_124, %outputs_134) <{data_format = "NHWC"}> {device = ""} : (tensor<*xf32>, tensor<*xf32>) -> tensor<*xf32>
      %outputs_138, %control_139 = tf_executor.island wraps "tf.LeakyRelu"(%outputs_136) <{alpha = 3.000000e-01 : f32}> {device = ""} : (tensor<*xf32>) -> tensor<*xf32>
      %outputs_140, %control_141 = tf_executor.island wraps "tf.ExpandDims"(%outputs_138, %outputs_68) {device = ""} : (tensor<*xf32>, tensor<i32>) -> tensor<*xf32>
      %outputs_142, %control_143 = tf_executor.island(%control_52) wraps "tf.Identity"(%outputs_20) {device = ""} : (tensor<*xf32>) -> tensor<*xf32>
      %outputs_144, %control_145 = tf_executor.island(%control_53) wraps "tf.Identity"(%outputs_142) {device = ""} : (tensor<*xf32>) -> tensor<*xf32>
      %outputs_146, %control_147 = tf_executor.island wraps "tf.Identity"(%outputs_144) {_has_manual_control_dependencies = true, device = ""} : (tensor<*xf32>) -> tensor<*xf32>
      %outputs_148, %control_149 = tf_executor.island wraps "tf.ExpandDims"(%outputs_146, %outputs_70) {device = ""} : (tensor<*xf32>, tensor<i32>) -> tensor<*xf32>
      %outputs_150, %control_151 = tf_executor.island wraps "tf.Conv2D"(%outputs_140, %outputs_148) <{data_format = "NHWC", dilations = [1, 1, 1, 1], explicit_paddings = [], padding = "SAME", strides = [1, 1, 2, 1], use_cudnn_on_gpu = true}> {device = ""} : (tensor<*xf32>, tensor<*xf32>) -> tensor<*xf32>
      %outputs_152, %control_153 = tf_executor.island wraps "tf.Squeeze"(%outputs_150) <{squeeze_dims = [-3]}> {device = ""} : (tensor<*xf32>) -> tensor<*xf32>
      %outputs_154, %control_155 = tf_executor.island(%control_52) wraps "tf.Identity"(%outputs_24) {device = ""} : (tensor<*xf32>) -> tensor<*xf32>
      %outputs_156, %control_157 = tf_executor.island(%control_53) wraps "tf.Identity"(%outputs_154) {device = ""} : (tensor<*xf32>) -> tensor<*xf32>
      %outputs_158, %control_159 = tf_executor.island wraps "tf.Identity"(%outputs_156) {_has_manual_control_dependencies = true, device = ""} : (tensor<*xf32>) -> tensor<*xf32>
      %outputs_160, %control_161 = tf_executor.island wraps "tf.Reshape"(%outputs_158, %outputs_66) {device = ""} : (tensor<*xf32>, tensor<3xi32>) -> tensor<*xf32>
      %outputs_162, %control_163 = tf_executor.island wraps "tf.Squeeze"(%outputs_160) <{squeeze_dims = []}> {device = ""} : (tensor<*xf32>) -> tensor<*xf32>
      %outputs_164, %control_165 = tf_executor.island wraps "tf.BiasAdd"(%outputs_152, %outputs_162) <{data_format = "NHWC"}> {device = ""} : (tensor<*xf32>, tensor<*xf32>) -> tensor<*xf32>
      %outputs_166, %control_167 = tf_executor.island wraps "tf.LeakyRelu"(%outputs_164) <{alpha = 3.000000e-01 : f32}> {device = ""} : (tensor<*xf32>) -> tensor<*xf32>
      %outputs_168, %control_169 = tf_executor.island wraps "tf.ExpandDims"(%outputs_166, %outputs_74) {device = ""} : (tensor<*xf32>, tensor<i32>) -> tensor<*xf32>
      %outputs_170, %control_171 = tf_executor.island(%control_52) wraps "tf.Identity"(%outputs_28) {device = ""} : (tensor<*xf32>) -> tensor<*xf32>
      %outputs_172, %control_173 = tf_executor.island(%control_53) wraps "tf.Identity"(%outputs_170) {device = ""} : (tensor<*xf32>) -> tensor<*xf32>
      %outputs_174, %control_175 = tf_executor.island wraps "tf.Identity"(%outputs_172) {_has_manual_control_dependencies = true, device = ""} : (tensor<*xf32>) -> tensor<*xf32>
      %outputs_176, %control_177 = tf_executor.island wraps "tf.ExpandDims"(%outputs_174, %outputs_76) {device = ""} : (tensor<*xf32>, tensor<i32>) -> tensor<*xf32>
      %outputs_178, %control_179 = tf_executor.island wraps "tf.Conv2D"(%outputs_168, %outputs_176) <{data_format = "NHWC", dilations = [1, 1, 1, 1], explicit_paddings = [], padding = "SAME", strides = [1, 1, 2, 1], use_cudnn_on_gpu = true}> {device = ""} : (tensor<*xf32>, tensor<*xf32>) -> tensor<*xf32>
      %outputs_180, %control_181 = tf_executor.island wraps "tf.Squeeze"(%outputs_178) <{squeeze_dims = [-3]}> {device = ""} : (tensor<*xf32>) -> tensor<*xf32>
      %outputs_182, %control_183 = tf_executor.island(%control_52) wraps "tf.Identity"(%outputs_32) {device = ""} : (tensor<*xf32>) -> tensor<*xf32>
      %outputs_184, %control_185 = tf_executor.island(%control_53) wraps "tf.Identity"(%outputs_182) {device = ""} : (tensor<*xf32>) -> tensor<*xf32>
      %outputs_186, %control_187 = tf_executor.island wraps "tf.Identity"(%outputs_184) {_has_manual_control_dependencies = true, device = ""} : (tensor<*xf32>) -> tensor<*xf32>
      %outputs_188, %control_189 = tf_executor.island wraps "tf.Reshape"(%outputs_186, %outputs_72) {device = ""} : (tensor<*xf32>, tensor<3xi32>) -> tensor<*xf32>
      %outputs_190, %control_191 = tf_executor.island wraps "tf.Squeeze"(%outputs_188) <{squeeze_dims = []}> {device = ""} : (tensor<*xf32>) -> tensor<*xf32>
      %outputs_192, %control_193 = tf_executor.island wraps "tf.BiasAdd"(%outputs_180, %outputs_190) <{data_format = "NHWC"}> {device = ""} : (tensor<*xf32>, tensor<*xf32>) -> tensor<*xf32>
      %outputs_194, %control_195 = tf_executor.island wraps "tf.LeakyRelu"(%outputs_192) <{alpha = 3.000000e-01 : f32}> {device = ""} : (tensor<*xf32>) -> tensor<*xf32>
      %outputs_196, %control_197 = tf_executor.island wraps "tf.Reshape"(%outputs_194, %outputs_78) {device = ""} : (tensor<*xf32>, tensor<2xi32>) -> tensor<*xf32>
      %outputs_198, %control_199 = tf_executor.island(%control_52) wraps "tf.Identity"(%outputs_36) {device = ""} : (tensor<*xf32>) -> tensor<*xf32>
      %outputs_200, %control_201 = tf_executor.island(%control_53) wraps "tf.Identity"(%outputs_198) {device = ""} : (tensor<*xf32>) -> tensor<*xf32>
      %outputs_202, %control_203 = tf_executor.island wraps "tf.Identity"(%outputs_200) {_has_manual_control_dependencies = true, device = ""} : (tensor<*xf32>) -> tensor<*xf32>
      %outputs_204, %control_205 = tf_executor.island wraps "tf.MatMul"(%outputs_196, %outputs_202) <{grad_a = false, grad_b = false, transpose_a = false, transpose_b = false}> {device = ""} : (tensor<*xf32>, tensor<*xf32>) -> tensor<*xf32>
      %outputs_206, %control_207 = tf_executor.island(%control_52) wraps "tf.Identity"(%outputs_40) {device = ""} : (tensor<*xf32>) -> tensor<*xf32>
      %outputs_208, %control_209 = tf_executor.island(%control_53) wraps "tf.Identity"(%outputs_206) {device = ""} : (tensor<*xf32>) -> tensor<*xf32>
      %outputs_210, %control_211 = tf_executor.island wraps "tf.Identity"(%outputs_208) {_has_manual_control_dependencies = true, device = ""} : (tensor<*xf32>) -> tensor<*xf32>
      %outputs_212, %control_213 = tf_executor.island wraps "tf.BiasAdd"(%outputs_204, %outputs_210) <{data_format = "NHWC"}> {device = ""} : (tensor<*xf32>, tensor<*xf32>) -> tensor<*xf32>
      %outputs_214, %control_215 = tf_executor.island(%control_52) wraps "tf.Identity"(%outputs_44) {device = ""} : (tensor<*xf32>) -> tensor<*xf32>
      %outputs_216, %control_217 = tf_executor.island(%control_53) wraps "tf.Identity"(%outputs_214) {device = ""} : (tensor<*xf32>) -> tensor<*xf32>
      %outputs_218, %control_219 = tf_executor.island wraps "tf.Identity"(%outputs_216) {_has_manual_control_dependencies = true, device = ""} : (tensor<*xf32>) -> tensor<*xf32>
      %outputs_220, %control_221 = tf_executor.island wraps "tf.MatMul"(%outputs_196, %outputs_218) <{grad_a = false, grad_b = false, transpose_a = false, transpose_b = false}> {device = ""} : (tensor<*xf32>, tensor<*xf32>) -> tensor<*xf32>
      %outputs_222, %control_223 = tf_executor.island(%control_52) wraps "tf.Identity"(%outputs_12) {device = ""} : (tensor<*xf32>) -> tensor<*xf32>
      %outputs_224, %control_225 = tf_executor.island(%control_53) wraps "tf.Identity"(%outputs_222) {device = ""} : (tensor<*xf32>) -> tensor<*xf32>
      %outputs_226, %control_227 = tf_executor.island wraps "tf.Identity"(%outputs_224) {_has_manual_control_dependencies = true, device = ""} : (tensor<*xf32>) -> tensor<*xf32>
      %control_228 = tf_executor.island(%control_91, %control_103, %control_119, %control_131, %control_147, %control_159, %control_175, %control_187, %control_219, %control_227, %control_211, %control_203) wraps "tf.NoOp"() {_has_manual_control_dependencies = true, device = ""} : () -> ()
      %control_229 = tf_executor.island(%control_228) wraps "tf.NoOp"() {_has_manual_control_dependencies = true, device = ""} : () -> ()
      %control_230 = tf_executor.island(%control_229) wraps "tf.NoOp"() {_has_manual_control_dependencies = true, device = ""} : () -> ()
      %control_231 = tf_executor.island(%control_230) wraps "tf.NoOp"() {_has_manual_control_dependencies = true, device = ""} : () -> ()
      %control_232 = tf_executor.island(%control_229) wraps "tf.NoOp"() {_has_manual_control_dependencies = true, device = ""} : () -> ()
      %control_233 = tf_executor.island(%control_228) wraps "tf.NoOp"() {_has_manual_control_dependencies = true, device = ""} : () -> ()
      %control_234 = tf_executor.island(%control_91, %control_103, %control_119, %control_131, %control_147, %control_159, %control_175, %control_187, %control_219, %control_227, %control_211, %control_203) wraps "tf.NoOp"() {_has_manual_control_dependencies = true, device = ""} : () -> ()
      %outputs_235, %control_236 = tf_executor.island(%control_234) wraps "tf.Identity"(%outputs_212) {device = ""} : (tensor<*xf32>) -> tensor<*xf32>
      %outputs_237, %control_238 = tf_executor.island wraps "tf.Identity"(%outputs_235) {device = ""} : (tensor<*xf32>) -> tensor<*xf32>
      %outputs_239, %control_240 = tf_executor.island(%control_233) wraps "tf.Identity"(%outputs_237) {device = ""} : (tensor<*xf32>) -> tensor<*xf32>
      %outputs_241, %control_242 = tf_executor.island wraps "tf.Identity"(%outputs_239) {device = ""} : (tensor<*xf32>) -> tensor<*xf32>
      %outputs_243, %control_244 = tf_executor.island(%control_232) wraps "tf.Identity"(%outputs_241) {device = ""} : (tensor<*xf32>) -> tensor<*xf32>
      %outputs_245, %control_246 = tf_executor.island wraps "tf.Identity"(%outputs_243) {device = ""} : (tensor<*xf32>) -> tensor<*xf32>
      %outputs_247, %control_248 = tf_executor.island(%control_231) wraps "tf.Identity"(%outputs_245) {device = ""} : (tensor<*xf32>) -> tensor<*xf32>
      %outputs_249, %control_250 = tf_executor.island wraps "tf.BiasAdd"(%outputs_220, %outputs_226) <{data_format = "NHWC"}> {device = ""} : (tensor<*xf32>, tensor<*xf32>) -> tensor<*xf32>
      %outputs_251, %control_252 = tf_executor.island(%control_234) wraps "tf.Identity"(%outputs_249) {device = ""} : (tensor<*xf32>) -> tensor<*xf32>
      %outputs_253, %control_254 = tf_executor.island wraps "tf.Identity"(%outputs_251) {device = ""} : (tensor<*xf32>) -> tensor<*xf32>
      %outputs_255, %control_256 = tf_executor.island(%control_233) wraps "tf.Identity"(%outputs_253) {device = ""} : (tensor<*xf32>) -> tensor<*xf32>
      %outputs_257, %control_258 = tf_executor.island wraps "tf.Identity"(%outputs_255) {device = ""} : (tensor<*xf32>) -> tensor<*xf32>
      %outputs_259, %control_260 = tf_executor.island(%control_232) wraps "tf.Identity"(%outputs_257) {device = ""} : (tensor<*xf32>) -> tensor<*xf32>
      %outputs_261, %control_262 = tf_executor.island wraps "tf.Identity"(%outputs_259) {device = ""} : (tensor<*xf32>) -> tensor<*xf32>
      %outputs_263, %control_264 = tf_executor.island(%control_231) wraps "tf.Identity"(%outputs_261) {device = ""} : (tensor<*xf32>) -> tensor<*xf32>
      tf_executor.fetch %outputs_263, %outputs_247 : tensor<*xf32>, tensor<*xf32>
    }
    return %0#0, %0#1 : tensor<*xf32>, tensor<*xf32>
  }
}
